digraph G {
  compound = true;
  subgraph cluster_1 {
    v2 [shape = plain, label = " "];
    label = "";
    v3 [shape = ellipse, label = "%0 = hal.tensor.export\n!hal.buffer_view"];
    v4 [shape = ellipse, label = " = func.return\n"];
  }
  subgraph cluster_5 {
    v6 [shape = plain, label = " "];
    label = "";
    v7 [shape = ellipse, label = "%0 = hal.tensor.export\n!hal.buffer_view"];
    v8 [shape = ellipse, label = " = func.return\n"];
  }
  subgraph cluster_9 {
    v10 [shape = plain, label = " "];
    label = "";
    v11 [shape = ellipse, label = "%0 = hal.tensor.export\n!hal.buffer_view"];
    v12 [shape = ellipse, label = " = func.return\n"];
  }
  subgraph cluster_13 {
    v14 [shape = plain, label = " "];
    label = "";
    v15 [shape = ellipse, label = "%0 = hal.tensor.export\n!hal.buffer_view"];
    v16 [shape = ellipse, label = " = func.return\n"];
  }
  subgraph cluster_17 {
    v18 [shape = plain, label = " "];
    label = "";
    v19 [shape = ellipse, label = "%0 = hal.tensor.export\n!hal.buffer_view"];
    v20 [shape = ellipse, label = " = func.return\n"];
  }
  subgraph cluster_21 {
    v22 [shape = plain, label = " "];
    label = "";
    v23 [shape = ellipse, label = "%0 = hal.tensor.export\n!hal.buffer_view"];
    v24 [shape = ellipse, label = " = func.return\n"];
  }
  subgraph cluster_25 {
    v26 [shape = plain, label = " "];
    label = "";
    v27 [shape = ellipse, label = "%0 = hal.tensor.export\n!hal.buffer_view"];
    v28 [shape = ellipse, label = " = func.return\n"];
  }
  subgraph cluster_29 {
    v30 [shape = plain, label = " "];
    label = "";
    v31 [shape = ellipse, label = "%0 = hal.tensor.export\n!hal.buffer_view"];
    v32 [shape = ellipse, label = " = func.return\n"];
  }
  subgraph cluster_33 {
    v34 [shape = plain, label = " "];
    label = "";
    v35 [shape = ellipse, label = "%0 = hal.tensor.export\n!hal.buffer_view"];
    v36 [shape = ellipse, label = " = func.return\n"];
  }
  subgraph cluster_37 {
    v38 [shape = plain, label = " "];
    label = "";
    v39 [shape = ellipse, label = "%0 = hal.tensor.export\n!hal.buffer_view"];
    v40 [shape = ellipse, label = " = func.return\n"];
  }
  subgraph cluster_41 {
    v42 [shape = plain, label = " "];
    label = "";
    v43 [shape = ellipse, label = "%0 = hal.tensor.export\n!hal.buffer_view"];
    v44 [shape = ellipse, label = " = func.return\n"];
  }
  subgraph cluster_45 {
    v46 [shape = plain, label = " "];
    label = "";
    v47 [shape = ellipse, label = "%0 = hal.tensor.export\n!hal.buffer_view"];
    v48 [shape = ellipse, label = " = func.return\n"];
  }
  subgraph cluster_49 {
    v50 [shape = plain, label = " "];
    label = "";
    v51 [shape = ellipse, label = "%0 = hal.tensor.export\n!hal.buffer_view"];
    v52 [shape = ellipse, label = " = func.return\n"];
  }
  subgraph cluster_53 {
    v54 [shape = plain, label = " "];
    label = "";
    v55 [shape = ellipse, label = "%0 = hal.tensor.export\n!hal.buffer_view"];
    v56 [shape = ellipse, label = " = func.return\n"];
  }
  subgraph cluster_57 {
    v58 [shape = plain, label = " "];
    label = "";
    v59 [shape = ellipse, label = "%0 = hal.tensor.export\n!hal.buffer_view"];
    v60 [shape = ellipse, label = " = func.return\n"];
  }
  subgraph cluster_61 {
    v62 [shape = plain, label = " "];
    label = "";
    v63 [shape = ellipse, label = "%0 = hal.tensor.export\n!hal.buffer_view"];
    v64 [shape = ellipse, label = " = func.return\n"];
  }
  subgraph cluster_65 {
    v66 [shape = plain, label = " "];
    label = "";
    v67 [shape = ellipse, label = "%0 = hal.tensor.export\n!hal.buffer_view"];
    v68 [shape = ellipse, label = " = func.return\n"];
  }
  subgraph cluster_69 {
    v70 [shape = plain, label = " "];
    label = "";
    v71 [shape = ellipse, label = "%0 = hal.tensor.export\n!hal.buffer_view"];
    v72 [shape = ellipse, label = " = func.return\n"];
  }
  subgraph cluster_73 {
    v74 [shape = plain, label = " "];
    label = "";
    v75 [shape = ellipse, label = "%0 = hal.tensor.export\n!hal.buffer_view"];
    v76 [shape = ellipse, label = " = func.return\n"];
  }
  subgraph cluster_77 {
    v78 [shape = plain, label = " "];
    label = "";
    v79 [shape = ellipse, label = "%0 = hal.tensor.export\n!hal.buffer_view"];
    v80 [shape = ellipse, label = " = func.return\n"];
  }
  subgraph cluster_81 {
    v82 [shape = plain, label = " "];
    label = "";
    v83 [shape = ellipse, label = "%0 = hal.tensor.export\n!hal.buffer_view"];
    v84 [shape = ellipse, label = " = func.return\n"];
  }
  subgraph cluster_85 {
    v86 [shape = plain, label = " "];
    label = "";
    v87 [shape = ellipse, label = "%0 = hal.tensor.export\n!hal.buffer_view"];
    v88 [shape = ellipse, label = " = func.return\n"];
  }
  subgraph cluster_89 {
    v90 [shape = plain, label = " "];
    label = "";
    v91 [shape = ellipse, label = "%0 = hal.tensor.export\n!hal.buffer_view"];
    v92 [shape = ellipse, label = " = func.return\n"];
  }
  subgraph cluster_93 {
    v94 [shape = plain, label = " "];
    label = "";
    v95 [shape = ellipse, label = "%0 = hal.tensor.export\n!hal.buffer_view"];
    v96 [shape = ellipse, label = " = func.return\n"];
  }
  subgraph cluster_97 {
    v98 [shape = plain, label = " "];
    label = "";
    v99 [shape = ellipse, label = "%0 = hal.tensor.export\n!hal.buffer_view"];
    v100 [shape = ellipse, label = " = func.return\n"];
  }
  subgraph cluster_101 {
    v102 [shape = plain, label = " "];
    label = "";
    v103 [shape = ellipse, label = "%0 = hal.tensor.export\n!hal.buffer_view"];
    v104 [shape = ellipse, label = " = func.return\n"];
  }
  subgraph cluster_105 {
    v106 [shape = plain, label = " "];
    label = "";
    v107 [shape = ellipse, label = "%0 = hal.tensor.export\n!hal.buffer_view"];
    v108 [shape = ellipse, label = " = func.return\n"];
  }
  subgraph cluster_109 {
    v110 [shape = plain, label = " "];
    label = "";
    v111 [shape = ellipse, label = "%0 = hal.tensor.export\n!hal.buffer_view"];
    v112 [shape = ellipse, label = " = func.return\n"];
  }
  subgraph cluster_113 {
    v114 [shape = plain, label = " "];
    label = "";
    v115 [shape = ellipse, label = "%0 = hal.tensor.export\n!hal.buffer_view"];
    v116 [shape = ellipse, label = " = func.return\n"];
  }
  subgraph cluster_117 {
    v118 [shape = plain, label = " "];
    label = "";
    v119 [shape = ellipse, label = "%0 = hal.tensor.export\n!hal.buffer_view"];
    v120 [shape = ellipse, label = " = func.return\n"];
  }
  subgraph cluster_121 {
    v122 [shape = plain, label = " "];
    label = "";
    v123 [shape = ellipse, label = "%0 = hal.tensor.export\n!hal.buffer_view"];
    v124 [shape = ellipse, label = " = func.return\n"];
  }
  subgraph cluster_125 {
    v126 [shape = plain, label = " "];
    label = "";
    v127 [shape = ellipse, label = "%0 = hal.tensor.export\n!hal.buffer_view"];
    v128 [shape = ellipse, label = " = func.return\n"];
  }
  subgraph cluster_129 {
    v130 [shape = plain, label = " "];
    label = "";
    v131 [shape = ellipse, label = "%0 = hal.tensor.export\n!hal.buffer_view"];
    v132 [shape = ellipse, label = " = func.return\n"];
  }
  subgraph cluster_133 {
    v134 [shape = plain, label = " "];
    label = "";
    v135 [shape = ellipse, label = "%0 = hal.tensor.export\n!hal.buffer_view"];
    v136 [shape = ellipse, label = " = func.return\n"];
  }
  subgraph cluster_137 {
    v138 [shape = plain, label = " "];
    label = "";
    v139 [shape = ellipse, label = "%0 = hal.tensor.export\n!hal.buffer_view"];
    v140 [shape = ellipse, label = " = func.return\n"];
  }
  subgraph cluster_141 {
    v142 [shape = plain, label = " "];
    label = "";
    v143 [shape = ellipse, label = "%0 = hal.tensor.export\n!hal.buffer_view"];
    v144 [shape = ellipse, label = " = func.return\n"];
  }
  subgraph cluster_145 {
    v146 [shape = plain, label = " "];
    label = "";
    v147 [shape = ellipse, label = "%0 = hal.tensor.export\n!hal.buffer_view"];
    v148 [shape = ellipse, label = " = func.return\n"];
  }
  subgraph cluster_149 {
    v150 [shape = plain, label = " "];
    label = "";
    v151 [shape = ellipse, label = "%0 = hal.tensor.export\n!hal.buffer_view"];
    v152 [shape = ellipse, label = " = func.return\n"];
  }
  subgraph cluster_153 {
    v154 [shape = plain, label = " "];
    label = "";
    v155 [shape = ellipse, label = "%0 = hal.tensor.export\n!hal.buffer_view"];
    v156 [shape = ellipse, label = " = func.return\n"];
  }
  subgraph cluster_157 {
    v158 [shape = plain, label = " "];
    label = "";
    v159 [shape = ellipse, label = "%0 = hal.tensor.export\n!hal.buffer_view"];
    v160 [shape = ellipse, label = " = func.return\n"];
  }
  subgraph cluster_161 {
    v162 [shape = plain, label = " "];
    label = "";
    v163 [shape = ellipse, label = "%0 = hal.tensor.export\n!hal.buffer_view"];
    v164 [shape = ellipse, label = " = func.return\n"];
  }
  subgraph cluster_165 {
    v166 [shape = plain, label = " "];
    label = "";
    v167 [shape = ellipse, label = "%0 = hal.tensor.export\n!hal.buffer_view"];
    v168 [shape = ellipse, label = " = func.return\n"];
  }
  subgraph cluster_169 {
    v170 [shape = plain, label = " "];
    label = "";
    v171 [shape = ellipse, label = "%0 = hal.tensor.export\n!hal.buffer_view"];
    v172 [shape = ellipse, label = " = func.return\n"];
  }
  subgraph cluster_173 {
    v174 [shape = plain, label = " "];
    label = "";
    v175 [shape = ellipse, label = "%0 = hal.tensor.export\n!hal.buffer_view"];
    v176 [shape = ellipse, label = " = func.return\n"];
  }
  subgraph cluster_177 {
    v178 [shape = plain, label = " "];
    label = "";
    v179 [shape = ellipse, label = "%0 = hal.tensor.export\n!hal.buffer_view"];
    v180 [shape = ellipse, label = " = func.return\n"];
  }
  subgraph cluster_181 {
    v182 [shape = plain, label = " "];
    label = "";
    v183 [shape = ellipse, label = "%0 = hal.tensor.export\n!hal.buffer_view"];
    v184 [shape = ellipse, label = " = func.return\n"];
  }
  subgraph cluster_185 {
    v186 [shape = plain, label = " "];
    label = "";
    v187 [shape = ellipse, label = "%0 = hal.tensor.export\n!hal.buffer_view"];
    v188 [shape = ellipse, label = " = func.return\n"];
  }
  subgraph cluster_189 {
    v190 [shape = plain, label = " "];
    label = "";
    v191 [shape = ellipse, label = "%0 = hal.tensor.export\n!hal.buffer_view"];
    v192 [shape = ellipse, label = " = func.return\n"];
  }
  subgraph cluster_193 {
    v194 [shape = plain, label = " "];
    label = "";
    v195 [shape = ellipse, label = "%0 = hal.tensor.export\n!hal.buffer_view"];
    v196 [shape = ellipse, label = " = func.return\n"];
  }
  subgraph cluster_197 {
    v198 [shape = plain, label = " "];
    label = "";
    v199 [shape = ellipse, label = "%0 = hal.tensor.export\n!hal.buffer_view"];
    v200 [shape = ellipse, label = " = func.return\n"];
  }
  subgraph cluster_201 {
    v202 [shape = plain, label = " "];
    label = "";
    v203 [shape = ellipse, label = "%0 = hal.tensor.export\n!hal.buffer_view"];
    v204 [shape = ellipse, label = " = func.return\n"];
  }
  subgraph cluster_205 {
    v206 [shape = plain, label = " "];
    label = "";
    v207 [shape = ellipse, label = "%0 = hal.tensor.export\n!hal.buffer_view"];
    v208 [shape = ellipse, label = " = func.return\n"];
  }
  subgraph cluster_209 {
    v210 [shape = plain, label = " "];
    label = "";
    v211 [shape = ellipse, label = "%0 = hal.tensor.export\n!hal.buffer_view"];
    v212 [shape = ellipse, label = " = func.return\n"];
  }
  subgraph cluster_213 {
    v214 [shape = plain, label = " "];
    label = "";
    v215 [shape = ellipse, label = "%0 = hal.tensor.export\n!hal.buffer_view"];
    v216 [shape = ellipse, label = " = func.return\n"];
  }
  subgraph cluster_217 {
    v218 [shape = plain, label = " "];
    label = "";
    v219 [shape = ellipse, label = "%0 = hal.tensor.export\n!hal.buffer_view"];
    v220 [shape = ellipse, label = " = func.return\n"];
  }
  subgraph cluster_221 {
    v222 [shape = plain, label = " "];
    label = "";
    v223 [shape = ellipse, label = "%0 = hal.tensor.export\n!hal.buffer_view"];
    v224 [shape = ellipse, label = " = func.return\n"];
  }
  subgraph cluster_225 {
    v226 [shape = plain, label = " "];
    label = "";
    v227 [shape = ellipse, label = "%0 = hal.tensor.export\n!hal.buffer_view"];
    v228 [shape = ellipse, label = " = func.return\n"];
  }
  subgraph cluster_229 {
    v230 [shape = plain, label = " "];
    label = "";
    v231 [shape = ellipse, label = "%0 = hal.tensor.export\n!hal.buffer_view"];
    v232 [shape = ellipse, label = " = func.return\n"];
  }
  subgraph cluster_233 {
    v234 [shape = plain, label = " "];
    label = "";
    v235 [shape = ellipse, label = "%0 = hal.tensor.export\n!hal.buffer_view"];
    v236 [shape = ellipse, label = " = func.return\n"];
  }
  subgraph cluster_237 {
    v238 [shape = plain, label = " "];
    label = "";
    v239 [shape = ellipse, label = "%0 = hal.tensor.export\n!hal.buffer_view"];
    v240 [shape = ellipse, label = " = func.return\n"];
  }
  subgraph cluster_241 {
    v242 [shape = plain, label = " "];
    label = "";
    v243 [shape = ellipse, label = "%0 = hal.tensor.export\n!hal.buffer_view"];
    v244 [shape = ellipse, label = " = func.return\n"];
  }
  subgraph cluster_245 {
    v246 [shape = plain, label = " "];
    label = "";
    v247 [shape = ellipse, label = "%0 = hal.tensor.export\n!hal.buffer_view"];
    v248 [shape = ellipse, label = " = func.return\n"];
  }
  subgraph cluster_249 {
    v250 [shape = plain, label = " "];
    label = "";
    v251 [shape = ellipse, label = "%0 = hal.tensor.export\n!hal.buffer_view"];
    v252 [shape = ellipse, label = " = func.return\n"];
  }
  subgraph cluster_253 {
    v254 [shape = plain, label = " "];
    label = "";
    v255 [shape = ellipse, label = "%0 = hal.tensor.export\n!hal.buffer_view"];
    v256 [shape = ellipse, label = " = func.return\n"];
  }
  subgraph cluster_257 {
    v258 [shape = plain, label = " "];
    label = "";
    v259 [shape = ellipse, label = "%0 = hal.tensor.export\n!hal.buffer_view"];
    v260 [shape = ellipse, label = " = func.return\n"];
  }
  subgraph cluster_261 {
    v262 [shape = plain, label = " "];
    label = "";
    v263 [shape = ellipse, label = "%0 = hal.tensor.export\n!hal.buffer_view"];
    v264 [shape = ellipse, label = " = func.return\n"];
  }
  subgraph cluster_265 {
    v266 [shape = plain, label = " "];
    label = "";
    v267 [shape = ellipse, label = "%0 = hal.tensor.export\n!hal.buffer_view"];
    v268 [shape = ellipse, label = " = func.return\n"];
  }
  subgraph cluster_269 {
    v270 [shape = plain, label = " "];
    label = "";
    v271 [shape = ellipse, label = "%0 = hal.tensor.export\n!hal.buffer_view"];
    v272 [shape = ellipse, label = " = func.return\n"];
  }
  subgraph cluster_273 {
    v274 [shape = plain, label = " "];
    label = "";
    v275 [shape = ellipse, label = "%0 = hal.tensor.export\n!hal.buffer_view"];
    v276 [shape = ellipse, label = " = func.return\n"];
  }
  subgraph cluster_277 {
    v278 [shape = plain, label = " "];
    label = "";
    v279 [shape = ellipse, label = "%0 = hal.tensor.export\n!hal.buffer_view"];
    v280 [shape = ellipse, label = " = func.return\n"];
  }
  subgraph cluster_281 {
    v282 [shape = plain, label = " "];
    label = "";
    v283 [shape = ellipse, label = "%0 = hal.tensor.export\n!hal.buffer_view"];
    v284 [shape = ellipse, label = " = func.return\n"];
  }
  subgraph cluster_285 {
    v286 [shape = plain, label = " "];
    label = "";
    v287 [shape = ellipse, label = "%0 = hal.tensor.export\n!hal.buffer_view"];
    v288 [shape = ellipse, label = " = func.return\n"];
  }
  subgraph cluster_289 {
    v290 [shape = plain, label = " "];
    label = "";
    v291 [shape = ellipse, label = "%0 = hal.tensor.export\n!hal.buffer_view"];
    v292 [shape = ellipse, label = " = func.return\n"];
  }
  subgraph cluster_293 {
    v294 [shape = plain, label = " "];
    label = "";
    v295 [shape = ellipse, label = "%0 = hal.tensor.export\n!hal.buffer_view"];
    v296 [shape = ellipse, label = " = func.return\n"];
  }
  subgraph cluster_297 {
    v298 [shape = plain, label = " "];
    label = "";
    v299 [shape = ellipse, label = "%0 = hal.tensor.export\n!hal.buffer_view"];
    v300 [shape = ellipse, label = " = func.return\n"];
  }
  subgraph cluster_301 {
    v302 [shape = plain, label = " "];
    label = "";
    v303 [shape = ellipse, label = "%0 = hal.tensor.export\n!hal.buffer_view"];
    v304 [shape = ellipse, label = " = func.return\n"];
  }
  subgraph cluster_305 {
    v306 [shape = plain, label = " "];
    label = "";
    v307 [shape = ellipse, label = "%0 = hal.tensor.export\n!hal.buffer_view"];
    v308 [shape = ellipse, label = " = func.return\n"];
  }
  subgraph cluster_309 {
    v310 [shape = plain, label = " "];
    label = "";
    v311 [shape = ellipse, label = "%0 = hal.tensor.export\n!hal.buffer_view"];
    v312 [shape = ellipse, label = " = func.return\n"];
  }
  subgraph cluster_313 {
    v314 [shape = plain, label = " "];
    label = "";
    v315 [shape = ellipse, label = "%0 = hal.tensor.export\n!hal.buffer_view"];
    v316 [shape = ellipse, label = " = func.return\n"];
  }
  subgraph cluster_317 {
    v318 [shape = plain, label = " "];
    label = "";
    v319 [shape = ellipse, label = "%0 = hal.tensor.export\n!hal.buffer_view"];
    v320 [shape = ellipse, label = " = func.return\n"];
  }
  subgraph cluster_321 {
    v322 [shape = plain, label = " "];
    label = "";
    v323 [shape = ellipse, label = "%0 = hal.tensor.export\n!hal.buffer_view"];
    v324 [shape = ellipse, label = " = func.return\n"];
  }
  subgraph cluster_325 {
    v326 [shape = plain, label = " "];
    label = "";
    v327 [shape = ellipse, label = "%0 = hal.tensor.export\n!hal.buffer_view"];
    v328 [shape = ellipse, label = " = func.return\n"];
  }
  subgraph cluster_329 {
    v330 [shape = plain, label = " "];
    label = "";
    v331 [shape = ellipse, label = "%0 = hal.tensor.export\n!hal.buffer_view"];
    v332 [shape = ellipse, label = " = func.return\n"];
  }
  subgraph cluster_333 {
    v334 [shape = plain, label = " "];
    label = "";
    v335 [shape = ellipse, label = "%0 = hal.tensor.export\n!hal.buffer_view"];
    v336 [shape = ellipse, label = " = func.return\n"];
  }
  subgraph cluster_337 {
    v338 [shape = plain, label = " "];
    label = "";
    v339 [shape = ellipse, label = "%0 = hal.tensor.export\n!hal.buffer_view"];
    v340 [shape = ellipse, label = " = func.return\n"];
  }
  subgraph cluster_341 {
    v342 [shape = plain, label = " "];
    label = "";
    v343 [shape = ellipse, label = "%0 = hal.tensor.export\n!hal.buffer_view"];
    v344 [shape = ellipse, label = " = func.return\n"];
  }
  subgraph cluster_345 {
    v346 [shape = plain, label = " "];
    label = "";
    v347 [shape = ellipse, label = "%0 = hal.tensor.export\n!hal.buffer_view"];
    v348 [shape = ellipse, label = " = func.return\n"];
  }
  subgraph cluster_349 {
    v350 [shape = plain, label = " "];
    label = "";
    v351 [shape = ellipse, label = "%0 = hal.tensor.export\n!hal.buffer_view"];
    v352 [shape = ellipse, label = " = func.return\n"];
  }
  subgraph cluster_353 {
    v354 [shape = plain, label = " "];
    label = "";
    v355 [shape = ellipse, label = "%0 = hal.tensor.export\n!hal.buffer_view"];
    v356 [shape = ellipse, label = " = func.return\n"];
  }
  subgraph cluster_357 {
    v358 [shape = plain, label = " "];
    label = "";
    v359 [shape = ellipse, label = "%0 = hal.tensor.export\n!hal.buffer_view"];
    v360 [shape = ellipse, label = " = func.return\n"];
  }
  subgraph cluster_361 {
    v362 [shape = plain, label = " "];
    label = "";
    v363 [shape = ellipse, label = "%0 = hal.tensor.export\n!hal.buffer_view"];
    v364 [shape = ellipse, label = " = func.return\n"];
  }
  subgraph cluster_365 {
    v366 [shape = plain, label = " "];
    label = "";
    v367 [shape = ellipse, label = "%0 = hal.tensor.export\n!hal.buffer_view"];
    v368 [shape = ellipse, label = " = func.return\n"];
  }
  subgraph cluster_369 {
    v370 [shape = plain, label = " "];
    label = "";
    v371 [shape = ellipse, label = "%0 = hal.tensor.export\n!hal.buffer_view"];
    v372 [shape = ellipse, label = " = func.return\n"];
  }
  subgraph cluster_373 {
    v374 [shape = plain, label = " "];
    label = "";
    v375 [shape = ellipse, label = "%0 = hal.tensor.export\n!hal.buffer_view"];
    v376 [shape = ellipse, label = " = func.return\n"];
  }
  subgraph cluster_377 {
    v378 [shape = plain, label = " "];
    label = "";
    v379 [shape = ellipse, label = "%0 = hal.tensor.export\n!hal.buffer_view"];
    v380 [shape = ellipse, label = " = func.return\n"];
  }
  subgraph cluster_381 {
    v382 [shape = plain, label = " "];
    label = "";
    v383 [shape = ellipse, label = "%0 = hal.tensor.export\n!hal.buffer_view"];
    v384 [shape = ellipse, label = " = func.return\n"];
  }
  subgraph cluster_385 {
    v386 [shape = plain, label = " "];
    label = "";
    v387 [shape = ellipse, label = "%0 = hal.tensor.export\n!hal.buffer_view"];
    v388 [shape = ellipse, label = " = func.return\n"];
  }
  subgraph cluster_389 {
    v390 [shape = plain, label = " "];
    label = "";
    v391 [shape = ellipse, label = "%0 = hal.tensor.export\n!hal.buffer_view"];
    v392 [shape = ellipse, label = " = func.return\n"];
  }
  subgraph cluster_393 {
    v394 [shape = plain, label = " "];
    label = "";
    v395 [shape = ellipse, label = "%0 = hal.tensor.export\n!hal.buffer_view"];
    v396 [shape = ellipse, label = " = func.return\n"];
  }
  subgraph cluster_397 {
    v398 [shape = plain, label = " "];
    label = "";
    v399 [shape = ellipse, label = "%0 = hal.tensor.export\n!hal.buffer_view"];
    v400 [shape = ellipse, label = " = func.return\n"];
  }
  subgraph cluster_401 {
    v402 [shape = plain, label = " "];
    label = "";
    v403 [shape = ellipse, label = "%0 = hal.tensor.export\n!hal.buffer_view"];
    v404 [shape = ellipse, label = " = func.return\n"];
  }
  subgraph cluster_405 {
    v406 [shape = plain, label = " "];
    label = "";
    v407 [shape = ellipse, label = "%0 = hal.tensor.export\n!hal.buffer_view"];
    v408 [shape = ellipse, label = " = func.return\n"];
  }
  subgraph cluster_409 {
    v410 [shape = plain, label = " "];
    label = "";
    v411 [shape = ellipse, label = "%0 = hal.tensor.export\n!hal.buffer_view"];
    v412 [shape = ellipse, label = " = func.return\n"];
  }
  subgraph cluster_413 {
    v414 [shape = plain, label = " "];
    label = "";
    v415 [shape = ellipse, label = "%0 = hal.tensor.export\n!hal.buffer_view"];
    v416 [shape = ellipse, label = " = func.return\n"];
  }
  subgraph cluster_417 {
    v418 [shape = plain, label = " "];
    label = "";
    v419 [shape = ellipse, label = "%0 = hal.tensor.export\n!hal.buffer_view"];
    v420 [shape = ellipse, label = " = func.return\n"];
  }
  subgraph cluster_421 {
    v422 [shape = plain, label = " "];
    label = "";
    v423 [shape = ellipse, label = "%0 = hal.tensor.export\n!hal.buffer_view"];
    v424 [shape = ellipse, label = " = func.return\n"];
  }
  subgraph cluster_425 {
    v426 [shape = plain, label = " "];
    label = "";
    v427 [shape = ellipse, label = "%0 = hal.tensor.export\n!hal.buffer_view"];
    v428 [shape = ellipse, label = " = func.return\n"];
  }
  subgraph cluster_429 {
    v430 [shape = plain, label = " "];
    label = "";
    v431 [shape = ellipse, label = "%0 = hal.tensor.export\n!hal.buffer_view"];
    v432 [shape = ellipse, label = " = func.return\n"];
  }
  subgraph cluster_433 {
    v434 [shape = plain, label = " "];
    label = "";
    v435 [shape = ellipse, label = "%0 = hal.tensor.export\n!hal.buffer_view"];
    v436 [shape = ellipse, label = " = func.return\n"];
  }
  subgraph cluster_437 {
    v438 [shape = plain, label = " "];
    label = "";
    v439 [shape = ellipse, label = "%0 = hal.tensor.export\n!hal.buffer_view"];
    v440 [shape = ellipse, label = " = func.return\n"];
  }
  subgraph cluster_441 {
    v442 [shape = plain, label = " "];
    label = "";
    v443 [shape = ellipse, label = "%0 = hal.tensor.export\n!hal.buffer_view"];
    v444 [shape = ellipse, label = " = func.return\n"];
  }
  subgraph cluster_445 {
    v446 [shape = plain, label = " "];
    label = "";
    v447 [shape = ellipse, label = "%0 = hal.tensor.export\n!hal.buffer_view"];
    v448 [shape = ellipse, label = " = func.return\n"];
  }
  subgraph cluster_449 {
    v450 [shape = plain, label = " "];
    label = "";
    v451 [shape = ellipse, label = "%0 = hal.tensor.export\n!hal.buffer_view"];
    v452 [shape = ellipse, label = " = func.return\n"];
  }
  subgraph cluster_453 {
    v454 [shape = plain, label = " "];
    label = "";
    v455 [shape = ellipse, label = "%0 = hal.tensor.export\n!hal.buffer_view"];
    v456 [shape = ellipse, label = " = func.return\n"];
  }
  subgraph cluster_457 {
    v458 [shape = plain, label = " "];
    label = "";
    v459 [shape = ellipse, label = "%0 = hal.tensor.export\n!hal.buffer_view"];
    v460 [shape = ellipse, label = " = func.return\n"];
  }
  subgraph cluster_461 {
    v462 [shape = plain, label = " "];
    label = "";
    v463 [shape = ellipse, label = "%0 = hal.tensor.export\n!hal.buffer_view"];
    v464 [shape = ellipse, label = " = func.return\n"];
  }
  subgraph cluster_465 {
    v466 [shape = plain, label = " "];
    label = "";
    v467 [shape = ellipse, label = "%0 = hal.tensor.export\n!hal.buffer_view"];
    v468 [shape = ellipse, label = " = func.return\n"];
  }
  subgraph cluster_469 {
    v470 [shape = plain, label = " "];
    label = "";
    v471 [shape = ellipse, label = "%0 = hal.tensor.export\n!hal.buffer_view"];
    v472 [shape = ellipse, label = " = func.return\n"];
  }
  subgraph cluster_473 {
    v474 [shape = plain, label = " "];
    label = "";
    v475 [shape = ellipse, label = "%0 = hal.tensor.export\n!hal.buffer_view"];
    v476 [shape = ellipse, label = " = func.return\n"];
  }
  subgraph cluster_477 {
    v478 [shape = plain, label = " "];
    label = "";
    v479 [shape = ellipse, label = "%0 = hal.tensor.export\n!hal.buffer_view"];
    v480 [shape = ellipse, label = " = func.return\n"];
  }
  subgraph cluster_481 {
    v482 [shape = plain, label = " "];
    label = "";
    v483 [shape = ellipse, label = "%0 = hal.tensor.export\n!hal.buffer_view"];
    v484 [shape = ellipse, label = " = func.return\n"];
  }
  subgraph cluster_485 {
    v486 [shape = plain, label = " "];
    label = "";
    v487 [shape = ellipse, label = "%0 = hal.tensor.export\n!hal.buffer_view"];
    v488 [shape = ellipse, label = " = func.return\n"];
  }
  subgraph cluster_489 {
    v490 [shape = plain, label = " "];
    label = "";
    v491 [shape = ellipse, label = "%0 = hal.tensor.export\n!hal.buffer_view"];
    v492 [shape = ellipse, label = " = func.return\n"];
  }
  subgraph cluster_493 {
    v494 [shape = plain, label = " "];
    label = "";
    v495 [shape = ellipse, label = "%0 = hal.tensor.export\n!hal.buffer_view"];
    v496 [shape = ellipse, label = " = func.return\n"];
  }
  subgraph cluster_497 {
    v498 [shape = plain, label = " "];
    label = "";
    v499 [shape = ellipse, label = "%0 = hal.tensor.export\n!hal.buffer_view"];
    v500 [shape = ellipse, label = " = func.return\n"];
  }
  subgraph cluster_501 {
    v502 [shape = plain, label = " "];
    label = "";
    v503 [shape = ellipse, label = "%0 = hal.tensor.export\n!hal.buffer_view"];
    v504 [shape = ellipse, label = " = func.return\n"];
  }
  subgraph cluster_505 {
    v506 [shape = plain, label = " "];
    label = "";
    v507 [shape = ellipse, label = "%0 = hal.tensor.export\n!hal.buffer_view"];
    v508 [shape = ellipse, label = " = func.return\n"];
  }
  subgraph cluster_509 {
    v510 [shape = plain, label = " "];
    label = "";
    v511 [shape = ellipse, label = "%0 = hal.tensor.export\n!hal.buffer_view"];
    v512 [shape = ellipse, label = " = func.return\n"];
  }
  subgraph cluster_513 {
    v514 [shape = plain, label = " "];
    label = "";
    v515 [shape = ellipse, label = "%0 = hal.tensor.export\n!hal.buffer_view"];
    v516 [shape = ellipse, label = " = func.return\n"];
  }
  subgraph cluster_517 {
    v518 [shape = plain, label = " "];
    label = "";
    v519 [shape = ellipse, label = "%0 = hal.tensor.export\n!hal.buffer_view"];
    v520 [shape = ellipse, label = " = func.return\n"];
  }
  subgraph cluster_521 {
    v522 [shape = plain, label = " "];
    label = "";
    v523 [shape = ellipse, label = "%0 = hal.tensor.export\n!hal.buffer_view"];
    v524 [shape = ellipse, label = " = func.return\n"];
  }
  subgraph cluster_525 {
    v526 [shape = plain, label = " "];
    label = "";
    v527 [shape = ellipse, label = "%0 = hal.tensor.export\n!hal.buffer_view"];
    v528 [shape = ellipse, label = " = func.return\n"];
  }
  subgraph cluster_529 {
    v530 [shape = plain, label = " "];
    label = "";
    v531 [shape = ellipse, label = "%0 = hal.tensor.export\n!hal.buffer_view"];
    v532 [shape = ellipse, label = " = func.return\n"];
  }
  subgraph cluster_533 {
    v534 [shape = plain, label = " "];
    label = "";
    v535 [shape = ellipse, label = "%0 = hal.tensor.export\n!hal.buffer_view"];
    v536 [shape = ellipse, label = " = func.return\n"];
  }
  subgraph cluster_537 {
    v538 [shape = plain, label = " "];
    label = "";
    v539 [shape = ellipse, label = "%0 = hal.tensor.export\n!hal.buffer_view"];
    v540 [shape = ellipse, label = " = func.return\n"];
  }
  subgraph cluster_541 {
    v542 [shape = plain, label = " "];
    label = "";
    v543 [shape = ellipse, label = "%0 = hal.tensor.export\n!hal.buffer_view"];
    v544 [shape = ellipse, label = " = func.return\n"];
  }
  subgraph cluster_545 {
    v546 [shape = plain, label = " "];
    label = "";
    v547 [shape = ellipse, label = "%0 = hal.tensor.export\n!hal.buffer_view"];
    v548 [shape = ellipse, label = " = func.return\n"];
  }
  subgraph cluster_549 {
    v550 [shape = plain, label = " "];
    label = "";
    v551 [shape = ellipse, label = "%0 = hal.tensor.export\n!hal.buffer_view"];
    v552 [shape = ellipse, label = " = func.return\n"];
  }
  subgraph cluster_553 {
    v554 [shape = plain, label = " "];
    label = "";
    v555 [shape = ellipse, label = "%0 = hal.tensor.export\n!hal.buffer_view"];
    v556 [shape = ellipse, label = " = func.return\n"];
  }
  subgraph cluster_557 {
    v558 [shape = plain, label = " "];
    label = "";
    v559 [shape = ellipse, label = "%0 = hal.tensor.export\n!hal.buffer_view"];
    v560 [shape = ellipse, label = " = func.return\n"];
  }
  subgraph cluster_561 {
    v562 [shape = plain, label = " "];
    label = "";
    v563 [shape = ellipse, label = "%0 = hal.tensor.export\n!hal.buffer_view"];
    v564 [shape = ellipse, label = " = func.return\n"];
  }
  subgraph cluster_565 {
    v566 [shape = plain, label = " "];
    label = "";
    v567 [shape = ellipse, label = "%0 = hal.tensor.export\n!hal.buffer_view"];
    v568 [shape = ellipse, label = " = func.return\n"];
  }
  subgraph cluster_569 {
    v570 [shape = plain, label = " "];
    label = "";
    v571 [shape = ellipse, label = "%0 = hal.tensor.export\n!hal.buffer_view"];
    v572 [shape = ellipse, label = " = func.return\n"];
  }
  subgraph cluster_573 {
    v574 [shape = plain, label = " "];
    label = "";
    v575 [shape = ellipse, label = "%0 = hal.tensor.export\n!hal.buffer_view"];
    v576 [shape = ellipse, label = " = func.return\n"];
  }
  subgraph cluster_577 {
    v578 [shape = plain, label = " "];
    label = "";
    v579 [shape = ellipse, label = "%0 = hal.tensor.export\n!hal.buffer_view"];
    v580 [shape = ellipse, label = " = func.return\n"];
  }
  subgraph cluster_581 {
    v582 [shape = plain, label = " "];
    label = "";
    v583 [shape = ellipse, label = "%0 = hal.tensor.export\n!hal.buffer_view"];
    v584 [shape = ellipse, label = " = func.return\n"];
  }
  subgraph cluster_585 {
    v586 [shape = plain, label = " "];
    label = "";
    v587 [shape = ellipse, label = "%0 = hal.tensor.export\n!hal.buffer_view"];
    v588 [shape = ellipse, label = " = func.return\n"];
  }
  subgraph cluster_589 {
    v590 [shape = plain, label = " "];
    label = "";
    v591 [shape = ellipse, label = "%0 = hal.tensor.export\n!hal.buffer_view"];
    v592 [shape = ellipse, label = " = func.return\n"];
  }
  subgraph cluster_593 {
    v594 [shape = plain, label = " "];
    label = "";
    v595 [shape = ellipse, label = "%0 = hal.tensor.export\n!hal.buffer_view"];
    v596 [shape = ellipse, label = " = func.return\n"];
  }
  subgraph cluster_597 {
    v598 [shape = plain, label = " "];
    label = "";
    v599 [shape = ellipse, label = "%0 = hal.tensor.export\n!hal.buffer_view"];
    v600 [shape = ellipse, label = " = func.return\n"];
  }
  subgraph cluster_601 {
    v602 [shape = plain, label = " "];
    label = "";
    v603 [shape = ellipse, label = "%0 = hal.tensor.export\n!hal.buffer_view"];
    v604 [shape = ellipse, label = " = func.return\n"];
  }
  subgraph cluster_605 {
    v606 [shape = plain, label = " "];
    label = "";
    v607 [shape = ellipse, label = "%0 = hal.tensor.export\n!hal.buffer_view"];
    v608 [shape = ellipse, label = " = func.return\n"];
  }
  subgraph cluster_609 {
    v610 [shape = plain, label = " "];
    label = "";
    v611 [shape = ellipse, label = "%0 = hal.tensor.export\n!hal.buffer_view"];
    v612 [shape = ellipse, label = " = func.return\n"];
  }
  subgraph cluster_613 {
    v614 [shape = plain, label = " "];
    label = "";
    v615 [shape = ellipse, label = "%0 = hal.tensor.export\n!hal.buffer_view"];
    v616 [shape = ellipse, label = " = func.return\n"];
  }
  subgraph cluster_617 {
    v618 [shape = plain, label = " "];
    label = "";
    v619 [shape = ellipse, label = "%0 = hal.tensor.export\n!hal.buffer_view"];
    v620 [shape = ellipse, label = " = func.return\n"];
  }
  subgraph cluster_621 {
    v622 [shape = plain, label = " "];
    label = "";
    v623 [shape = ellipse, label = "%0 = hal.tensor.export\n!hal.buffer_view"];
    v624 [shape = ellipse, label = " = func.return\n"];
  }
  subgraph cluster_625 {
    v626 [shape = plain, label = " "];
    label = "";
    v627 [shape = ellipse, label = "%0 = hal.tensor.export\n!hal.buffer_view"];
    v628 [shape = ellipse, label = " = func.return\n"];
  }
  subgraph cluster_629 {
    v630 [shape = plain, label = " "];
    label = "";
    v631 [shape = ellipse, label = "%0 = hal.tensor.export\n!hal.buffer_view"];
    v632 [shape = ellipse, label = " = func.return\n"];
  }
  subgraph cluster_633 {
    v634 [shape = plain, label = " "];
    label = "";
    v635 [shape = ellipse, label = "%0 = hal.tensor.export\n!hal.buffer_view"];
    v636 [shape = ellipse, label = " = func.return\n"];
  }
  subgraph cluster_637 {
    v638 [shape = plain, label = " "];
    label = "";
    v639 [shape = ellipse, label = "%0 = hal.tensor.export\n!hal.buffer_view"];
    v640 [shape = ellipse, label = " = func.return\n"];
  }
  subgraph cluster_641 {
    v642 [shape = plain, label = " "];
    label = "";
    v643 [shape = ellipse, label = "%0 = hal.tensor.export\n!hal.buffer_view"];
    v644 [shape = ellipse, label = " = func.return\n"];
  }
  subgraph cluster_645 {
    v646 [shape = plain, label = " "];
    label = "";
    v647 [shape = ellipse, label = "%0 = hal.tensor.export\n!hal.buffer_view"];
    v648 [shape = ellipse, label = " = func.return\n"];
  }
  subgraph cluster_649 {
    v650 [shape = plain, label = " "];
    label = "";
    v651 [shape = ellipse, label = "%0 = hal.tensor.export\n!hal.buffer_view"];
    v652 [shape = ellipse, label = " = func.return\n"];
  }
  subgraph cluster_653 {
    v654 [shape = plain, label = " "];
    label = "";
    v655 [shape = ellipse, label = "%0 = hal.tensor.export\n!hal.buffer_view"];
    v656 [shape = ellipse, label = " = func.return\n"];
  }
  subgraph cluster_657 {
    v658 [shape = plain, label = " "];
    label = "";
    v659 [shape = ellipse, label = "%0 = hal.tensor.export\n!hal.buffer_view"];
    v660 [shape = ellipse, label = " = func.return\n"];
  }
  subgraph cluster_661 {
    v662 [shape = plain, label = " "];
    label = "";
    v663 [shape = ellipse, label = "%0 = hal.tensor.export\n!hal.buffer_view"];
    v664 [shape = ellipse, label = " = func.return\n"];
  }
  subgraph cluster_665 {
    v666 [shape = plain, label = " "];
    label = "";
    v667 [shape = ellipse, label = "%0 = hal.tensor.export\n!hal.buffer_view"];
    v668 [shape = ellipse, label = " = func.return\n"];
  }
  subgraph cluster_669 {
    v670 [shape = plain, label = " "];
    label = "";
    v671 [shape = ellipse, label = "%0 = hal.tensor.export\n!hal.buffer_view"];
    v672 [shape = ellipse, label = " = func.return\n"];
  }
  subgraph cluster_673 {
    v674 [shape = plain, label = " "];
    label = "";
    v675 [shape = ellipse, label = "%0 = hal.tensor.export\n!hal.buffer_view"];
    v676 [shape = ellipse, label = " = func.return\n"];
  }
  subgraph cluster_677 {
    v678 [shape = plain, label = " "];
    label = "";
    v679 [shape = ellipse, label = "%0 = hal.tensor.export\n!hal.buffer_view"];
    v680 [shape = ellipse, label = " = func.return\n"];
  }
  subgraph cluster_681 {
    v682 [shape = plain, label = " "];
    label = "";
    v683 [shape = ellipse, label = "%0 = hal.tensor.export\n!hal.buffer_view"];
    v684 [shape = ellipse, label = " = func.return\n"];
  }
  subgraph cluster_685 {
    v686 [shape = plain, label = " "];
    label = "";
    v687 [shape = ellipse, label = "%0 = hal.tensor.export\n!hal.buffer_view"];
    v688 [shape = ellipse, label = " = func.return\n"];
  }
  subgraph cluster_689 {
    v690 [shape = plain, label = " "];
    label = "";
    v691 [shape = ellipse, label = "%0 = hal.tensor.export\n!hal.buffer_view"];
    v692 [shape = ellipse, label = " = func.return\n"];
  }
  subgraph cluster_693 {
    v694 [shape = plain, label = " "];
    label = "";
    v695 [shape = ellipse, label = "%0 = hal.tensor.export\n!hal.buffer_view"];
    v696 [shape = ellipse, label = " = func.return\n"];
  }
  subgraph cluster_697 {
    v698 [shape = plain, label = " "];
    label = "";
    v699 [shape = ellipse, label = "%0 = hal.tensor.export\n!hal.buffer_view"];
    v700 [shape = ellipse, label = " = func.return\n"];
  }
  subgraph cluster_701 {
    v702 [shape = plain, label = " "];
    label = "";
    v703 [shape = ellipse, label = "%0 = hal.tensor.export\n!hal.buffer_view"];
    v704 [shape = ellipse, label = " = func.return\n"];
  }
  subgraph cluster_705 {
    v706 [shape = plain, label = " "];
    label = "";
    v707 [shape = ellipse, label = "%0 = hal.tensor.export\n!hal.buffer_view"];
    v708 [shape = ellipse, label = " = func.return\n"];
  }
  subgraph cluster_709 {
    v710 [shape = plain, label = " "];
    label = "";
    v711 [shape = ellipse, label = "%0 = hal.tensor.export\n!hal.buffer_view"];
    v712 [shape = ellipse, label = " = func.return\n"];
  }
  subgraph cluster_713 {
    v714 [shape = plain, label = " "];
    label = "";
    v715 [shape = ellipse, label = "%0 = hal.tensor.export\n!hal.buffer_view"];
    v716 [shape = ellipse, label = " = func.return\n"];
  }
  subgraph cluster_717 {
    v718 [shape = plain, label = " "];
    label = "";
    v719 [shape = ellipse, label = "%0 = hal.tensor.export\n!hal.buffer_view"];
    v720 [shape = ellipse, label = " = func.return\n"];
  }
  subgraph cluster_721 {
    v722 [shape = plain, label = " "];
    label = "";
    v723 [shape = ellipse, label = "%0 = hal.tensor.export\n!hal.buffer_view"];
    v724 [shape = ellipse, label = " = func.return\n"];
  }
  subgraph cluster_725 {
    v726 [shape = plain, label = " "];
    label = "";
    v727 [shape = ellipse, label = "%0 = hal.tensor.export\n!hal.buffer_view"];
    v728 [shape = ellipse, label = " = func.return\n"];
  }
  subgraph cluster_729 {
    v730 [shape = plain, label = " "];
    label = "";
    v731 [shape = ellipse, label = "%0 = hal.tensor.export\n!hal.buffer_view"];
    v732 [shape = ellipse, label = " = func.return\n"];
  }
  subgraph cluster_733 {
    v734 [shape = plain, label = " "];
    label = "";
    v735 [shape = ellipse, label = "%0 = hal.tensor.export\n!hal.buffer_view"];
    v736 [shape = ellipse, label = " = func.return\n"];
  }
  subgraph cluster_737 {
    v738 [shape = plain, label = " "];
    label = "";
    v739 [shape = ellipse, label = "%0 = hal.tensor.export\n!hal.buffer_view"];
    v740 [shape = ellipse, label = " = func.return\n"];
  }
  subgraph cluster_741 {
    v742 [shape = plain, label = " "];
    label = "";
    v743 [shape = ellipse, label = "%0 = hal.tensor.export\n!hal.buffer_view"];
    v744 [shape = ellipse, label = " = func.return\n"];
  }
  subgraph cluster_745 {
    v746 [shape = plain, label = " "];
    label = "";
    v747 [shape = ellipse, label = "%0 = hal.tensor.export\n!hal.buffer_view"];
    v748 [shape = ellipse, label = " = func.return\n"];
  }
  subgraph cluster_749 {
    v750 [shape = plain, label = " "];
    label = "";
    v751 [shape = ellipse, label = "%0 = hal.tensor.export\n!hal.buffer_view"];
    v752 [shape = ellipse, label = " = func.return\n"];
  }
  subgraph cluster_753 {
    v754 [shape = plain, label = " "];
    label = "";
    v755 [shape = ellipse, label = "%0 = hal.tensor.export\n!hal.buffer_view"];
    v756 [shape = ellipse, label = " = func.return\n"];
  }
  subgraph cluster_757 {
    v758 [shape = plain, label = " "];
    label = "";
    v759 [shape = ellipse, label = "%0 = hal.tensor.export\n!hal.buffer_view"];
    v760 [shape = ellipse, label = " = func.return\n"];
  }
  subgraph cluster_761 {
    v762 [shape = plain, label = " "];
    label = "";
    v763 [shape = ellipse, label = "%0 = hal.tensor.export\n!hal.buffer_view"];
    v764 [shape = ellipse, label = " = func.return\n"];
  }
  subgraph cluster_765 {
    v766 [shape = plain, label = " "];
    label = "";
    v767 [shape = ellipse, label = "%0 = hal.tensor.export\n!hal.buffer_view"];
    v768 [shape = ellipse, label = " = func.return\n"];
  }
  subgraph cluster_769 {
    v770 [shape = plain, label = " "];
    label = "";
    v771 [shape = ellipse, label = "%0 = hal.tensor.export\n!hal.buffer_view"];
    v772 [shape = ellipse, label = " = func.return\n"];
  }
  subgraph cluster_773 {
    v774 [shape = plain, label = " "];
    label = "";
    v775 [shape = ellipse, label = "%0 = hal.tensor.export\n!hal.buffer_view"];
    v776 [shape = ellipse, label = " = func.return\n"];
  }
  subgraph cluster_777 {
    v778 [shape = plain, label = " "];
    label = "";
    v779 [shape = ellipse, label = "%0 = hal.tensor.export\n!hal.buffer_view"];
    v780 [shape = ellipse, label = " = func.return\n"];
  }
  subgraph cluster_781 {
    v782 [shape = plain, label = " "];
    label = "";
    v783 [shape = ellipse, label = "%0 = hal.tensor.export\n!hal.buffer_view"];
    v784 [shape = ellipse, label = " = func.return\n"];
  }
  subgraph cluster_785 {
    v786 [shape = plain, label = " "];
    label = "";
    v787 [shape = ellipse, label = "%0 = hal.tensor.export\n!hal.buffer_view"];
    v788 [shape = ellipse, label = " = func.return\n"];
  }
  subgraph cluster_789 {
    v790 [shape = plain, label = " "];
    label = "";
    v791 [shape = ellipse, label = "%0 = hal.tensor.export\n!hal.buffer_view"];
    v792 [shape = ellipse, label = " = func.return\n"];
  }
  subgraph cluster_793 {
    v794 [shape = plain, label = " "];
    label = "";
    v795 [shape = ellipse, label = "%0 = hal.tensor.export\n!hal.buffer_view"];
    v796 [shape = ellipse, label = " = func.return\n"];
  }
  subgraph cluster_797 {
    v798 [shape = plain, label = " "];
    label = "";
    v799 [shape = ellipse, label = "%0 = hal.tensor.export\n!hal.buffer_view"];
    v800 [shape = ellipse, label = " = func.return\n"];
  }
  subgraph cluster_801 {
    v802 [shape = plain, label = " "];
    label = "";
    v803 [shape = ellipse, label = "%0 = hal.tensor.export\n!hal.buffer_view"];
    v804 [shape = ellipse, label = " = func.return\n"];
  }
  subgraph cluster_805 {
    v806 [shape = plain, label = " "];
    label = "";
    v807 [shape = ellipse, label = "%0 = hal.tensor.export\n!hal.buffer_view"];
    v808 [shape = ellipse, label = " = func.return\n"];
  }
  subgraph cluster_809 {
    v810 [shape = plain, label = " "];
    label = "";
    v811 [shape = ellipse, label = "%0 = hal.tensor.export\n!hal.buffer_view"];
    v812 [shape = ellipse, label = " = func.return\n"];
  }
  subgraph cluster_813 {
    v814 [shape = plain, label = " "];
    label = "";
    v815 [shape = ellipse, label = "%0 = hal.tensor.export\n!hal.buffer_view"];
    v816 [shape = ellipse, label = " = func.return\n"];
  }
  subgraph cluster_817 {
    v818 [shape = plain, label = " "];
    label = "";
    v819 [shape = ellipse, label = "%0 = hal.tensor.export\n!hal.buffer_view"];
    v820 [shape = ellipse, label = " = func.return\n"];
  }
  subgraph cluster_821 {
    v822 [shape = plain, label = " "];
    label = "";
    v823 [shape = ellipse, label = "%0 = hal.tensor.export\n!hal.buffer_view"];
    v824 [shape = ellipse, label = " = func.return\n"];
  }
  subgraph cluster_825 {
    v826 [shape = plain, label = " "];
    label = "";
    v827 [shape = ellipse, label = "%0 = hal.tensor.export\n!hal.buffer_view"];
    v828 [shape = ellipse, label = " = func.return\n"];
  }
  subgraph cluster_829 {
    v830 [shape = plain, label = " "];
    label = "";
    v831 [shape = ellipse, label = "%0 = hal.tensor.export\n!hal.buffer_view"];
    v832 [shape = ellipse, label = " = func.return\n"];
  }
  subgraph cluster_833 {
    v834 [shape = plain, label = " "];
    label = "";
    v835 [shape = ellipse, label = "%0 = hal.tensor.export\n!hal.buffer_view"];
    v836 [shape = ellipse, label = " = func.return\n"];
  }
  subgraph cluster_837 {
    v838 [shape = plain, label = " "];
    label = "";
    v839 [shape = ellipse, label = "%0 = hal.tensor.export\n!hal.buffer_view"];
    v840 [shape = ellipse, label = " = func.return\n"];
  }
  subgraph cluster_841 {
    v842 [shape = plain, label = " "];
    label = "";
    v843 [shape = ellipse, label = "%0 = hal.tensor.export\n!hal.buffer_view"];
    v844 [shape = ellipse, label = " = func.return\n"];
  }
  subgraph cluster_845 {
    v846 [shape = plain, label = " "];
    label = "";
    v847 [shape = ellipse, label = "%0 = hal.tensor.export\n!hal.buffer_view"];
    v848 [shape = ellipse, label = " = func.return\n"];
  }
  subgraph cluster_849 {
    v850 [shape = plain, label = " "];
    label = "";
    v851 [shape = ellipse, label = "%0 = hal.tensor.export\n!hal.buffer_view"];
    v852 [shape = ellipse, label = " = func.return\n"];
  }
  subgraph cluster_853 {
    v854 [shape = plain, label = " "];
    label = "";
    v855 [shape = ellipse, label = "%0 = hal.tensor.export\n!hal.buffer_view"];
    v856 [shape = ellipse, label = " = func.return\n"];
  }
  subgraph cluster_857 {
    v858 [shape = plain, label = " "];
    label = "";
    v859 [shape = ellipse, label = "%0 = hal.tensor.export\n!hal.buffer_view"];
    v860 [shape = ellipse, label = " = func.return\n"];
  }
  subgraph cluster_861 {
    v862 [shape = plain, label = " "];
    label = "";
    v863 [shape = ellipse, label = "%0 = hal.tensor.export\n!hal.buffer_view"];
    v864 [shape = ellipse, label = " = func.return\n"];
  }
  subgraph cluster_865 {
    v866 [shape = plain, label = " "];
    label = "";
    v867 [shape = ellipse, label = "%0 = hal.tensor.export\n!hal.buffer_view"];
    v868 [shape = ellipse, label = " = func.return\n"];
  }
  subgraph cluster_869 {
    v870 [shape = plain, label = " "];
    label = "";
    v871 [shape = ellipse, label = "%0 = hal.tensor.export\n!hal.buffer_view"];
    v872 [shape = ellipse, label = " = func.return\n"];
  }
  subgraph cluster_873 {
    v874 [shape = plain, label = " "];
    label = "";
    v875 [shape = ellipse, label = "%0 = hal.tensor.export\n!hal.buffer_view"];
    v876 [shape = ellipse, label = " = func.return\n"];
  }
  subgraph cluster_877 {
    v878 [shape = plain, label = " "];
    label = "";
    v879 [shape = ellipse, label = "%0 = hal.tensor.export\n!hal.buffer_view"];
    v880 [shape = ellipse, label = " = func.return\n"];
  }
  subgraph cluster_881 {
    v882 [shape = plain, label = " "];
    label = "";
    v883 [shape = ellipse, label = "%0 = hal.tensor.export\n!hal.buffer_view"];
    v884 [shape = ellipse, label = " = func.return\n"];
  }
  subgraph cluster_885 {
    v886 [shape = plain, label = " "];
    label = "";
    v887 [shape = ellipse, label = "%0 = hal.tensor.export\n!hal.buffer_view"];
    v888 [shape = ellipse, label = " = func.return\n"];
  }
  subgraph cluster_889 {
    v890 [shape = plain, label = " "];
    label = "";
    v891 [shape = ellipse, label = "%0 = hal.tensor.export\n!hal.buffer_view"];
    v892 [shape = ellipse, label = " = func.return\n"];
  }
  subgraph cluster_893 {
    v894 [shape = plain, label = " "];
    label = "";
    v895 [shape = ellipse, label = "%0 = hal.tensor.export\n!hal.buffer_view"];
    v896 [shape = ellipse, label = " = func.return\n"];
  }
  subgraph cluster_897 {
    v898 [shape = plain, label = " "];
    label = "";
    v899 [shape = ellipse, label = "%0 = hal.tensor.export\n!hal.buffer_view"];
    v900 [shape = ellipse, label = " = func.return\n"];
  }
  subgraph cluster_901 {
    v902 [shape = plain, label = " "];
    label = "";
    v903 [shape = ellipse, label = "%0 = hal.tensor.export\n!hal.buffer_view"];
    v904 [shape = ellipse, label = " = func.return\n"];
  }
  subgraph cluster_905 {
    v906 [shape = plain, label = " "];
    label = "";
    v907 [shape = ellipse, label = "%0 = hal.tensor.export\n!hal.buffer_view"];
    v908 [shape = ellipse, label = " = func.return\n"];
  }
  subgraph cluster_909 {
    v910 [shape = plain, label = " "];
    label = "";
    v911 [shape = ellipse, label = "%0 = hal.tensor.export\n!hal.buffer_view"];
    v912 [shape = ellipse, label = " = func.return\n"];
  }
  subgraph cluster_913 {
    v914 [shape = plain, label = " "];
    label = "";
    v915 [shape = ellipse, label = "%0 = hal.tensor.export\n!hal.buffer_view"];
    v916 [shape = ellipse, label = " = func.return\n"];
  }
  subgraph cluster_917 {
    v918 [shape = plain, label = " "];
    label = "";
    v919 [shape = ellipse, label = "%0 = hal.tensor.export\n!hal.buffer_view"];
    v920 [shape = ellipse, label = " = func.return\n"];
  }
  subgraph cluster_921 {
    v922 [shape = plain, label = " "];
    label = "";
    v923 [shape = ellipse, label = "%0 = hal.tensor.export\n!hal.buffer_view"];
    v924 [shape = ellipse, label = " = func.return\n"];
  }
  subgraph cluster_925 {
    v926 [shape = plain, label = " "];
    label = "";
    v927 [shape = ellipse, label = "%0 = hal.tensor.export\n!hal.buffer_view"];
    v928 [shape = ellipse, label = " = func.return\n"];
  }
  subgraph cluster_929 {
    v930 [shape = plain, label = " "];
    label = "";
    v931 [shape = ellipse, label = "%0 = hal.tensor.export\n!hal.buffer_view"];
    v932 [shape = ellipse, label = " = func.return\n"];
  }
  subgraph cluster_933 {
    v934 [shape = plain, label = " "];
    label = "";
    v935 [shape = ellipse, label = "%0 = hal.tensor.export\n!hal.buffer_view"];
    v936 [shape = ellipse, label = " = func.return\n"];
  }
  subgraph cluster_937 {
    v938 [shape = plain, label = " "];
    label = "";
    v939 [shape = ellipse, label = "%0 = hal.tensor.export\n!hal.buffer_view"];
    v940 [shape = ellipse, label = " = func.return\n"];
  }
  subgraph cluster_941 {
    v942 [shape = plain, label = " "];
    label = "";
    v943 [shape = ellipse, label = "%0 = hal.tensor.export\n!hal.buffer_view"];
    v944 [shape = ellipse, label = " = func.return\n"];
  }
  subgraph cluster_945 {
    v946 [shape = plain, label = " "];
    label = "";
    v947 [shape = ellipse, label = "%0 = hal.tensor.export\n!hal.buffer_view"];
    v948 [shape = ellipse, label = " = func.return\n"];
  }
  subgraph cluster_949 {
    v950 [shape = plain, label = " "];
    label = "";
    v951 [shape = ellipse, label = "%0 = hal.tensor.export\n!hal.buffer_view"];
    v952 [shape = ellipse, label = " = func.return\n"];
  }
  subgraph cluster_953 {
    v954 [shape = plain, label = " "];
    label = "";
    v955 [shape = ellipse, label = "%0 = hal.tensor.export\n!hal.buffer_view"];
    v956 [shape = ellipse, label = " = func.return\n"];
  }
  subgraph cluster_957 {
    v958 [shape = plain, label = " "];
    label = "";
    v959 [shape = ellipse, label = "%0 = hal.tensor.export\n!hal.buffer_view"];
    v960 [shape = ellipse, label = " = func.return\n"];
  }
  subgraph cluster_961 {
    v962 [shape = plain, label = " "];
    label = "";
    v963 [shape = ellipse, label = "%0 = hal.tensor.export\n!hal.buffer_view"];
    v964 [shape = ellipse, label = " = func.return\n"];
  }
  subgraph cluster_965 {
    v966 [shape = plain, label = " "];
    label = "";
    v967 [shape = ellipse, label = "%0 = hal.tensor.export\n!hal.buffer_view"];
    v968 [shape = ellipse, label = " = func.return\n"];
  }
  subgraph cluster_969 {
    v970 [shape = plain, label = " "];
    label = "";
    v971 [shape = ellipse, label = "%0 = hal.tensor.export\n!hal.buffer_view"];
    v972 [shape = ellipse, label = " = func.return\n"];
  }
  subgraph cluster_973 {
    v974 [shape = plain, label = " "];
    label = "";
    v975 [shape = ellipse, label = "%0 = hal.tensor.export\n!hal.buffer_view"];
    v976 [shape = ellipse, label = " = func.return\n"];
  }
  subgraph cluster_977 {
    v978 [shape = plain, label = " "];
    label = "";
    v979 [shape = ellipse, label = "%0 = hal.tensor.export\n!hal.buffer_view"];
    v980 [shape = ellipse, label = " = func.return\n"];
  }
  subgraph cluster_981 {
    v982 [shape = plain, label = " "];
    label = "";
    v983 [shape = ellipse, label = "%0 = hal.tensor.export\n!hal.buffer_view"];
    v984 [shape = ellipse, label = " = func.return\n"];
  }
  subgraph cluster_985 {
    v986 [shape = plain, label = " "];
    label = "";
    v987 [shape = ellipse, label = "%0 = hal.tensor.export\n!hal.buffer_view"];
    v988 [shape = ellipse, label = " = func.return\n"];
  }
  subgraph cluster_989 {
    v990 [shape = plain, label = " "];
    label = "";
    v991 [shape = ellipse, label = "%0 = hal.tensor.export\n!hal.buffer_view"];
    v992 [shape = ellipse, label = " = func.return\n"];
  }
  subgraph cluster_993 {
    v994 [shape = plain, label = " "];
    label = "";
    v995 [shape = ellipse, label = "%0 = hal.tensor.export\n!hal.buffer_view"];
    v996 [shape = ellipse, label = " = func.return\n"];
  }
  subgraph cluster_997 {
    v998 [shape = plain, label = " "];
    label = "";
    v999 [shape = ellipse, label = "%0 = hal.tensor.export\n!hal.buffer_view"];
    v1000 [shape = ellipse, label = " = func.return\n"];
  }
  subgraph cluster_1001 {
    v1002 [shape = plain, label = " "];
    label = "";
    v1003 [shape = ellipse, label = "%0 = hal.tensor.export\n!hal.buffer_view"];
    v1004 [shape = ellipse, label = " = func.return\n"];
  }
  subgraph cluster_1005 {
    v1006 [shape = plain, label = " "];
    label = "";
    v1007 [shape = ellipse, label = "%0 = hal.tensor.export\n!hal.buffer_view"];
    v1008 [shape = ellipse, label = " = func.return\n"];
  }
  subgraph cluster_1009 {
    v1010 [shape = plain, label = " "];
    label = "";
    v1011 [shape = ellipse, label = "%0 = hal.tensor.export\n!hal.buffer_view"];
    v1012 [shape = ellipse, label = " = func.return\n"];
  }
  subgraph cluster_1013 {
    v1014 [shape = plain, label = " "];
    label = "";
    v1015 [shape = ellipse, label = "%0 = hal.tensor.export\n!hal.buffer_view"];
    v1016 [shape = ellipse, label = " = func.return\n"];
  }
  subgraph cluster_1017 {
    v1018 [shape = plain, label = " "];
    label = "";
    v1019 [shape = ellipse, label = "%0 = hal.tensor.export\n!hal.buffer_view"];
    v1020 [shape = ellipse, label = " = func.return\n"];
  }
  subgraph cluster_1021 {
    v1022 [shape = plain, label = " "];
    label = "";
    v1023 [shape = ellipse, label = "%0 = hal.tensor.export\n!hal.buffer_view"];
    v1024 [shape = ellipse, label = " = func.return\n"];
  }
  subgraph cluster_1025 {
    v1026 [shape = plain, label = " "];
    label = "";
    v1027 [shape = ellipse, label = "%0 = hal.tensor.export\n!hal.buffer_view"];
    v1028 [shape = ellipse, label = " = func.return\n"];
  }
  subgraph cluster_1029 {
    v1030 [shape = plain, label = " "];
    label = "";
    v1031 [shape = ellipse, label = "%0 = hal.tensor.export\n!hal.buffer_view"];
    v1032 [shape = ellipse, label = " = func.return\n"];
  }
  subgraph cluster_1033 {
    v1034 [shape = plain, label = " "];
    label = "";
    v1035 [shape = ellipse, label = "%0 = hal.tensor.export\n!hal.buffer_view"];
    v1036 [shape = ellipse, label = " = func.return\n"];
  }
  subgraph cluster_1037 {
    v1038 [shape = plain, label = " "];
    label = "";
    v1039 [shape = ellipse, label = "%0 = hal.tensor.export\n!hal.buffer_view"];
    v1040 [shape = ellipse, label = " = func.return\n"];
  }
  subgraph cluster_1041 {
    v1042 [shape = plain, label = " "];
    label = "";
    v1043 [shape = ellipse, label = "%0 = hal.tensor.export\n!hal.buffer_view"];
    v1044 [shape = ellipse, label = " = func.return\n"];
  }
  subgraph cluster_1045 {
    v1046 [shape = plain, label = " "];
    label = "";
    v1047 [shape = ellipse, label = "%0 = hal.tensor.export\n!hal.buffer_view"];
    v1048 [shape = ellipse, label = " = func.return\n"];
  }
  subgraph cluster_1049 {
    v1050 [shape = plain, label = " "];
    label = "";
    v1051 [shape = ellipse, label = "%0 = hal.tensor.export\n!hal.buffer_view"];
    v1052 [shape = ellipse, label = " = func.return\n"];
  }
  subgraph cluster_1053 {
    v1054 [shape = plain, label = " "];
    label = "";
    v1055 [shape = ellipse, label = "%0 = hal.tensor.export\n!hal.buffer_view"];
    v1056 [shape = ellipse, label = " = func.return\n"];
  }
  subgraph cluster_1057 {
    v1058 [shape = plain, label = " "];
    label = "";
    v1059 [shape = ellipse, label = "%0 = hal.tensor.export\n!hal.buffer_view"];
    v1060 [shape = ellipse, label = " = func.return\n"];
  }
  subgraph cluster_1061 {
    v1062 [shape = plain, label = " "];
    label = "";
    v1063 [shape = ellipse, label = "%0 = hal.tensor.export\n!hal.buffer_view"];
    v1064 [shape = ellipse, label = " = func.return\n"];
  }
  subgraph cluster_1065 {
    v1066 [shape = plain, label = " "];
    label = "";
    v1067 [shape = ellipse, label = "%0 = hal.tensor.export\n!hal.buffer_view"];
    v1068 [shape = ellipse, label = " = func.return\n"];
  }
  subgraph cluster_1069 {
    v1070 [shape = plain, label = " "];
    label = "";
    v1071 [shape = ellipse, label = "%0 = hal.tensor.export\n!hal.buffer_view"];
    v1072 [shape = ellipse, label = " = func.return\n"];
  }
  subgraph cluster_1073 {
    v1074 [shape = plain, label = " "];
    label = "";
    v1075 [shape = ellipse, label = "%0 = hal.tensor.export\n!hal.buffer_view"];
    v1076 [shape = ellipse, label = " = func.return\n"];
  }
  subgraph cluster_1077 {
    v1078 [shape = plain, label = " "];
    label = "";
    v1079 [shape = ellipse, label = "%0 = hal.tensor.export\n!hal.buffer_view"];
    v1080 [shape = ellipse, label = " = func.return\n"];
  }
  subgraph cluster_1081 {
    v1082 [shape = plain, label = " "];
    label = "";
    v1083 [shape = ellipse, label = "%0 = hal.tensor.export\n!hal.buffer_view"];
    v1084 [shape = ellipse, label = " = func.return\n"];
  }
  subgraph cluster_1085 {
    v1086 [shape = plain, label = " "];
    label = "";
    v1087 [shape = ellipse, label = "%0 = hal.tensor.export\n!hal.buffer_view"];
    v1088 [shape = ellipse, label = " = func.return\n"];
  }
  subgraph cluster_1089 {
    v1090 [shape = plain, label = " "];
    label = "";
    v1091 [shape = ellipse, label = "%0 = hal.tensor.export\n!hal.buffer_view"];
    v1092 [shape = ellipse, label = " = func.return\n"];
  }
  subgraph cluster_1093 {
    v1094 [shape = plain, label = " "];
    label = "";
    v1095 [shape = ellipse, label = "%0 = hal.tensor.export\n!hal.buffer_view"];
    v1096 [shape = ellipse, label = " = func.return\n"];
  }
  subgraph cluster_1097 {
    v1098 [shape = plain, label = " "];
    label = "";
    v1099 [shape = ellipse, label = "%0 = hal.tensor.export\n!hal.buffer_view"];
    v1100 [shape = ellipse, label = " = func.return\n"];
  }
  subgraph cluster_1101 {
    v1102 [shape = plain, label = " "];
    label = "";
    v1103 [shape = ellipse, label = "%0 = hal.tensor.export\n!hal.buffer_view"];
    v1104 [shape = ellipse, label = " = func.return\n"];
  }
  subgraph cluster_1105 {
    v1106 [shape = plain, label = " "];
    label = "";
    v1107 [shape = ellipse, label = "%0 = hal.tensor.export\n!hal.buffer_view"];
    v1108 [shape = ellipse, label = " = func.return\n"];
  }
  subgraph cluster_1109 {
    v1110 [shape = plain, label = " "];
    label = "";
    v1111 [shape = ellipse, label = "%0 = hal.tensor.export\n!hal.buffer_view"];
    v1112 [shape = ellipse, label = " = func.return\n"];
  }
  subgraph cluster_1113 {
    v1114 [shape = plain, label = " "];
    label = "";
    v1115 [shape = ellipse, label = "%0 = hal.tensor.export\n!hal.buffer_view"];
    v1116 [shape = ellipse, label = " = func.return\n"];
  }
  subgraph cluster_1117 {
    v1118 [shape = plain, label = " "];
    label = "";
    v1119 [shape = ellipse, label = "%0 = hal.tensor.export\n!hal.buffer_view"];
    v1120 [shape = ellipse, label = " = func.return\n"];
  }
  subgraph cluster_1121 {
    v1122 [shape = plain, label = " "];
    label = "";
    v1123 [shape = ellipse, label = "%0 = hal.tensor.export\n!hal.buffer_view"];
    v1124 [shape = ellipse, label = " = func.return\n"];
  }
  subgraph cluster_1125 {
    v1126 [shape = plain, label = " "];
    label = "";
    v1127 [shape = ellipse, label = "%0 = hal.tensor.export\n!hal.buffer_view"];
    v1128 [shape = ellipse, label = " = func.return\n"];
  }
  subgraph cluster_1129 {
    v1130 [shape = plain, label = " "];
    label = "";
    v1131 [shape = ellipse, label = "%0 = hal.tensor.export\n!hal.buffer_view"];
    v1132 [shape = ellipse, label = " = func.return\n"];
  }
  subgraph cluster_1133 {
    v1134 [shape = plain, label = " "];
    label = "";
    v1135 [shape = ellipse, label = "%0 = hal.tensor.export\n!hal.buffer_view"];
    v1136 [shape = ellipse, label = " = func.return\n"];
  }
  subgraph cluster_1137 {
    v1138 [shape = plain, label = " "];
    label = "";
    v1139 [shape = ellipse, label = "%0 = hal.tensor.export\n!hal.buffer_view"];
    v1140 [shape = ellipse, label = " = func.return\n"];
  }
  subgraph cluster_1141 {
    v1142 [shape = plain, label = " "];
    label = "";
    v1143 [shape = ellipse, label = "%0 = hal.tensor.export\n!hal.buffer_view"];
    v1144 [shape = ellipse, label = " = func.return\n"];
  }
  subgraph cluster_1145 {
    v1146 [shape = plain, label = " "];
    label = "";
    v1147 [shape = ellipse, label = "%0 = hal.tensor.export\n!hal.buffer_view"];
    v1148 [shape = ellipse, label = " = func.return\n"];
  }
  subgraph cluster_1149 {
    v1150 [shape = plain, label = " "];
    label = "";
    v1151 [shape = ellipse, label = "%0 = hal.tensor.export\n!hal.buffer_view"];
    v1152 [shape = ellipse, label = " = func.return\n"];
  }
  subgraph cluster_1153 {
    v1154 [shape = plain, label = " "];
    label = "";
    v1155 [shape = ellipse, label = "%0 = hal.tensor.export\n!hal.buffer_view"];
    v1156 [shape = ellipse, label = " = func.return\n"];
  }
  subgraph cluster_1157 {
    v1158 [shape = plain, label = " "];
    label = "";
    v1159 [shape = ellipse, label = "%0 = hal.tensor.export\n!hal.buffer_view"];
    v1160 [shape = ellipse, label = " = func.return\n"];
  }
  subgraph cluster_1161 {
    v1162 [shape = plain, label = " "];
    label = "";
    v1163 [shape = ellipse, label = "%0 = hal.tensor.export\n!hal.buffer_view"];
    v1164 [shape = ellipse, label = " = func.return\n"];
  }
  subgraph cluster_1165 {
    v1166 [shape = plain, label = " "];
    label = "";
    v1167 [shape = ellipse, label = "%0 = hal.tensor.export\n!hal.buffer_view"];
    v1168 [shape = ellipse, label = " = func.return\n"];
  }
  subgraph cluster_1169 {
    v1170 [shape = plain, label = " "];
    label = "";
    v1171 [shape = ellipse, label = "%0 = hal.tensor.export\n!hal.buffer_view"];
    v1172 [shape = ellipse, label = " = func.return\n"];
  }
  subgraph cluster_1173 {
    v1174 [shape = plain, label = " "];
    label = "";
    v1175 [shape = ellipse, label = "%0 = hal.tensor.export\n!hal.buffer_view"];
    v1176 [shape = ellipse, label = " = func.return\n"];
  }
  subgraph cluster_1177 {
    v1178 [shape = plain, label = " "];
    label = "";
    v1179 [shape = ellipse, label = "%0 = hal.tensor.export\n!hal.buffer_view"];
    v1180 [shape = ellipse, label = " = func.return\n"];
  }
  subgraph cluster_1181 {
    v1182 [shape = plain, label = " "];
    label = "";
    v1183 [shape = ellipse, label = "%0 = hal.tensor.export\n!hal.buffer_view"];
    v1184 [shape = ellipse, label = " = func.return\n"];
  }
  subgraph cluster_1185 {
    v1186 [shape = plain, label = " "];
    label = "";
    v1187 [shape = ellipse, label = "%0 = hal.tensor.export\n!hal.buffer_view"];
    v1188 [shape = ellipse, label = " = func.return\n"];
  }
  subgraph cluster_1189 {
    v1190 [shape = plain, label = " "];
    label = "";
    v1191 [shape = ellipse, label = "%0 = hal.tensor.export\n!hal.buffer_view"];
    v1192 [shape = ellipse, label = " = func.return\n"];
  }
  subgraph cluster_1193 {
    v1194 [shape = plain, label = " "];
    label = "";
    v1195 [shape = ellipse, label = "%0 = hal.tensor.export\n!hal.buffer_view"];
    v1196 [shape = ellipse, label = " = func.return\n"];
  }
  subgraph cluster_1197 {
    v1198 [shape = plain, label = " "];
    label = "";
    v1199 [shape = ellipse, label = "%0 = hal.tensor.export\n!hal.buffer_view"];
    v1200 [shape = ellipse, label = " = func.return\n"];
  }
  subgraph cluster_1201 {
    v1202 [shape = plain, label = " "];
    label = "";
    v1203 [shape = ellipse, label = "%0 = hal.tensor.export\n!hal.buffer_view"];
    v1204 [shape = ellipse, label = " = func.return\n"];
  }
  subgraph cluster_1205 {
    v1206 [shape = plain, label = " "];
    label = "";
    v1207 [shape = ellipse, label = "%0 = hal.tensor.export\n!hal.buffer_view"];
    v1208 [shape = ellipse, label = " = func.return\n"];
  }
  subgraph cluster_1209 {
    v1210 [shape = plain, label = " "];
    label = "";
    v1211 [shape = ellipse, label = "%0 = hal.tensor.export\n!hal.buffer_view"];
    v1212 [shape = ellipse, label = " = func.return\n"];
  }
  subgraph cluster_1213 {
    v1214 [shape = plain, label = " "];
    label = "";
    v1215 [shape = ellipse, label = "%0 = hal.tensor.export\n!hal.buffer_view"];
    v1216 [shape = ellipse, label = " = func.return\n"];
  }
  subgraph cluster_1217 {
    v1218 [shape = plain, label = " "];
    label = "";
    v1219 [shape = ellipse, label = "%0 = hal.tensor.export\n!hal.buffer_view"];
    v1220 [shape = ellipse, label = " = func.return\n"];
  }
  subgraph cluster_1221 {
    v1222 [shape = plain, label = " "];
    label = "";
    v1223 [shape = ellipse, label = "%0 = hal.tensor.export\n!hal.buffer_view"];
    v1224 [shape = ellipse, label = " = func.return\n"];
  }
  subgraph cluster_1225 {
    v1226 [shape = plain, label = " "];
    label = "";
    v1227 [shape = ellipse, label = "%0 = hal.tensor.export\n!hal.buffer_view"];
    v1228 [shape = ellipse, label = " = func.return\n"];
  }
  subgraph cluster_1229 {
    v1230 [shape = plain, label = " "];
    label = "";
    v1231 [shape = ellipse, label = "%0 = hal.tensor.export\n!hal.buffer_view"];
    v1232 [shape = ellipse, label = " = func.return\n"];
  }
  subgraph cluster_1233 {
    v1234 [shape = plain, label = " "];
    label = "";
    v1235 [shape = ellipse, label = "%0 = hal.tensor.export\n!hal.buffer_view"];
    v1236 [shape = ellipse, label = " = func.return\n"];
  }
  subgraph cluster_1237 {
    v1238 [shape = plain, label = " "];
    label = "";
    v1239 [shape = ellipse, label = "%0 = hal.tensor.export\n!hal.buffer_view"];
    v1240 [shape = ellipse, label = " = func.return\n"];
  }
  subgraph cluster_1241 {
    v1242 [shape = plain, label = " "];
    label = "";
    v1243 [shape = ellipse, label = "%0 = hal.tensor.export\n!hal.buffer_view"];
    v1244 [shape = ellipse, label = " = func.return\n"];
  }
  subgraph cluster_1245 {
    v1246 [shape = plain, label = " "];
    label = "";
    v1247 [shape = ellipse, label = "%0 = hal.tensor.export\n!hal.buffer_view"];
    v1248 [shape = ellipse, label = " = func.return\n"];
  }
  subgraph cluster_1249 {
    v1250 [shape = plain, label = " "];
    label = "";
    v1251 [shape = ellipse, label = "%0 = hal.tensor.export\n!hal.buffer_view"];
    v1252 [shape = ellipse, label = " = func.return\n"];
  }
  subgraph cluster_1253 {
    v1254 [shape = plain, label = " "];
    label = "";
    v1255 [shape = ellipse, label = "%0 = hal.tensor.export\n!hal.buffer_view"];
    v1256 [shape = ellipse, label = " = func.return\n"];
  }
  subgraph cluster_1257 {
    v1258 [shape = plain, label = " "];
    label = "";
    v1259 [shape = ellipse, label = "%0 = hal.tensor.export\n!hal.buffer_view"];
    v1260 [shape = ellipse, label = " = func.return\n"];
  }
  subgraph cluster_1261 {
    v1262 [shape = plain, label = " "];
    label = "";
    v1263 [shape = ellipse, label = "%0 = hal.tensor.export\n!hal.buffer_view"];
    v1264 [shape = ellipse, label = " = func.return\n"];
  }
  subgraph cluster_1265 {
    v1266 [shape = plain, label = " "];
    label = "";
    v1267 [shape = ellipse, label = "%0 = hal.tensor.export\n!hal.buffer_view"];
    v1268 [shape = ellipse, label = " = func.return\n"];
  }
  subgraph cluster_1269 {
    v1270 [shape = plain, label = " "];
    label = "";
    v1271 [shape = ellipse, label = "%0 = hal.tensor.export\n!hal.buffer_view"];
    v1272 [shape = ellipse, label = " = func.return\n"];
  }
  subgraph cluster_1273 {
    v1274 [shape = plain, label = " "];
    label = "";
    v1275 [shape = ellipse, label = "%0 = hal.tensor.export\n!hal.buffer_view"];
    v1276 [shape = ellipse, label = " = func.return\n"];
  }
  subgraph cluster_1277 {
    v1278 [shape = plain, label = " "];
    label = "";
    v1279 [shape = ellipse, label = "%0 = hal.tensor.export\n!hal.buffer_view"];
    v1280 [shape = ellipse, label = " = func.return\n"];
  }
  subgraph cluster_1281 {
    v1282 [shape = plain, label = " "];
    label = "";
    v1283 [shape = ellipse, label = "%0 = hal.tensor.export\n!hal.buffer_view"];
    v1284 [shape = ellipse, label = " = func.return\n"];
  }
  subgraph cluster_1285 {
    v1286 [shape = plain, label = " "];
    label = "";
    v1287 [shape = ellipse, label = "%0 = hal.tensor.export\n!hal.buffer_view"];
    v1288 [shape = ellipse, label = " = func.return\n"];
  }
  subgraph cluster_1289 {
    v1290 [shape = plain, label = " "];
    label = "";
    v1291 [shape = ellipse, label = "%0 = hal.tensor.export\n!hal.buffer_view"];
    v1292 [shape = ellipse, label = " = func.return\n"];
  }
  subgraph cluster_1293 {
    v1294 [shape = plain, label = " "];
    label = "";
    v1295 [shape = ellipse, label = "%0 = hal.tensor.export\n!hal.buffer_view"];
    v1296 [shape = ellipse, label = " = func.return\n"];
  }
  subgraph cluster_1297 {
    v1298 [shape = plain, label = " "];
    label = "";
    v1299 [shape = ellipse, label = "%0 = hal.tensor.export\n!hal.buffer_view"];
    v1300 [shape = ellipse, label = " = func.return\n"];
  }
  subgraph cluster_1301 {
    v1302 [shape = plain, label = " "];
    label = "";
    v1303 [shape = ellipse, label = "%0 = hal.tensor.export\n!hal.buffer_view"];
    v1304 [shape = ellipse, label = " = func.return\n"];
  }
  subgraph cluster_1305 {
    v1306 [shape = plain, label = " "];
    label = "";
    v1307 [shape = ellipse, label = "%0 = hal.tensor.export\n!hal.buffer_view"];
    v1308 [shape = ellipse, label = " = func.return\n"];
  }
  subgraph cluster_1309 {
    v1310 [shape = plain, label = " "];
    label = "";
    v1311 [shape = ellipse, label = "%0 = hal.tensor.export\n!hal.buffer_view"];
    v1312 [shape = ellipse, label = " = func.return\n"];
  }
  subgraph cluster_1313 {
    v1314 [shape = plain, label = " "];
    label = "";
    v1315 [shape = ellipse, label = "%0 = hal.tensor.export\n!hal.buffer_view"];
    v1316 [shape = ellipse, label = " = func.return\n"];
  }
  subgraph cluster_1317 {
    v1318 [shape = plain, label = " "];
    label = "";
    v1319 [shape = ellipse, label = "%0 = hal.tensor.export\n!hal.buffer_view"];
    v1320 [shape = ellipse, label = " = func.return\n"];
  }
  subgraph cluster_1321 {
    v1322 [shape = plain, label = " "];
    label = "";
    v1323 [shape = ellipse, label = "%0 = hal.tensor.export\n!hal.buffer_view"];
    v1324 [shape = ellipse, label = " = func.return\n"];
  }
  subgraph cluster_1325 {
    v1326 [shape = plain, label = " "];
    label = "";
    v1327 [shape = ellipse, label = "%0 = hal.tensor.export\n!hal.buffer_view"];
    v1328 [shape = ellipse, label = " = func.return\n"];
  }
  subgraph cluster_1329 {
    v1330 [shape = plain, label = " "];
    label = "";
    v1331 [shape = ellipse, label = "%0 = hal.tensor.export\n!hal.buffer_view"];
    v1332 [shape = ellipse, label = " = func.return\n"];
  }
  subgraph cluster_1333 {
    v1334 [shape = plain, label = " "];
    label = "";
    v1335 [shape = ellipse, label = "%0 = hal.tensor.export\n!hal.buffer_view"];
    v1336 [shape = ellipse, label = " = func.return\n"];
  }
  subgraph cluster_1337 {
    v1338 [shape = plain, label = " "];
    label = "";
    v1339 [shape = ellipse, label = "%0 = hal.tensor.export\n!hal.buffer_view"];
    v1340 [shape = ellipse, label = " = func.return\n"];
  }
  subgraph cluster_1341 {
    v1342 [shape = plain, label = " "];
    label = "";
    v1343 [shape = ellipse, label = "%0 = hal.tensor.export\n!hal.buffer_view"];
    v1344 [shape = ellipse, label = " = func.return\n"];
  }
  subgraph cluster_1345 {
    v1346 [shape = plain, label = " "];
    label = "";
    v1347 [shape = ellipse, label = "%0 = hal.tensor.export\n!hal.buffer_view"];
    v1348 [shape = ellipse, label = " = func.return\n"];
  }
  subgraph cluster_1349 {
    v1350 [shape = plain, label = " "];
    label = "";
    v1351 [shape = ellipse, label = "%0 = hal.tensor.export\n!hal.buffer_view"];
    v1352 [shape = ellipse, label = " = func.return\n"];
  }
  subgraph cluster_1353 {
    v1354 [shape = plain, label = " "];
    label = "";
    v1355 [shape = ellipse, label = "%0 = hal.tensor.export\n!hal.buffer_view"];
    v1356 [shape = ellipse, label = " = func.return\n"];
  }
  subgraph cluster_1357 {
    v1358 [shape = plain, label = " "];
    label = "";
    v1359 [shape = ellipse, label = "%0 = hal.tensor.export\n!hal.buffer_view"];
    v1360 [shape = ellipse, label = " = func.return\n"];
  }
  subgraph cluster_1361 {
    v1362 [shape = plain, label = " "];
    label = "";
    v1363 [shape = ellipse, label = "%0 = hal.tensor.export\n!hal.buffer_view"];
    v1364 [shape = ellipse, label = " = func.return\n"];
  }
  subgraph cluster_1365 {
    v1366 [shape = plain, label = " "];
    label = "";
    v1367 [shape = ellipse, label = "%0 = hal.tensor.export\n!hal.buffer_view"];
    v1368 [shape = ellipse, label = " = func.return\n"];
  }
  subgraph cluster_1369 {
    v1370 [shape = plain, label = " "];
    label = "";
    v1371 [shape = ellipse, label = "%0 = hal.tensor.export\n!hal.buffer_view"];
    v1372 [shape = ellipse, label = " = func.return\n"];
  }
  subgraph cluster_1373 {
    v1374 [shape = plain, label = " "];
    label = "";
    v1375 [shape = ellipse, label = "%0 = hal.tensor.export\n!hal.buffer_view"];
    v1376 [shape = ellipse, label = " = func.return\n"];
  }
  subgraph cluster_1377 {
    v1378 [shape = plain, label = " "];
    label = "";
    v1379 [shape = ellipse, label = "%0 = hal.tensor.export\n!hal.buffer_view"];
    v1380 [shape = ellipse, label = " = func.return\n"];
  }
  subgraph cluster_1381 {
    v1382 [shape = plain, label = " "];
    label = "";
    v1383 [shape = ellipse, label = "%0 = hal.tensor.export\n!hal.buffer_view"];
    v1384 [shape = ellipse, label = " = func.return\n"];
  }
  subgraph cluster_1385 {
    v1386 [shape = plain, label = " "];
    label = "";
    v1387 [shape = ellipse, label = "%0 = hal.tensor.export\n!hal.buffer_view"];
    v1388 [shape = ellipse, label = " = func.return\n"];
  }
  subgraph cluster_1389 {
    v1390 [shape = plain, label = " "];
    label = "";
    v1391 [shape = ellipse, label = "%0 = hal.tensor.export\n!hal.buffer_view"];
    v1392 [shape = ellipse, label = " = func.return\n"];
  }
  subgraph cluster_1393 {
    v1394 [shape = plain, label = " "];
    label = "";
    v1395 [shape = ellipse, label = "%0 = hal.tensor.export\n!hal.buffer_view"];
    v1396 [shape = ellipse, label = " = func.return\n"];
  }
  subgraph cluster_1397 {
    v1398 [shape = plain, label = " "];
    label = "";
    v1399 [shape = ellipse, label = "%0 = hal.tensor.export\n!hal.buffer_view"];
    v1400 [shape = ellipse, label = " = func.return\n"];
  }
  subgraph cluster_1401 {
    v1402 [shape = plain, label = " "];
    label = "";
    v1403 [shape = ellipse, label = "%0 = hal.tensor.export\n!hal.buffer_view"];
    v1404 [shape = ellipse, label = " = func.return\n"];
  }
  subgraph cluster_1405 {
    v1406 [shape = plain, label = " "];
    label = "";
    v1407 [shape = ellipse, label = "%0 = hal.tensor.export\n!hal.buffer_view"];
    v1408 [shape = ellipse, label = " = func.return\n"];
  }
  subgraph cluster_1409 {
    v1410 [shape = plain, label = " "];
    label = "";
    v1411 [shape = ellipse, label = "%0 = hal.tensor.export\n!hal.buffer_view"];
    v1412 [shape = ellipse, label = " = func.return\n"];
  }
  subgraph cluster_1413 {
    v1414 [shape = plain, label = " "];
    label = "";
    v1415 [shape = ellipse, label = "%0 = hal.tensor.export\n!hal.buffer_view"];
    v1416 [shape = ellipse, label = " = func.return\n"];
  }
  subgraph cluster_1417 {
    v1418 [shape = plain, label = " "];
    label = "";
    v1419 [shape = ellipse, label = "%0 = hal.tensor.export\n!hal.buffer_view"];
    v1420 [shape = ellipse, label = " = func.return\n"];
  }
  subgraph cluster_1421 {
    v1422 [shape = plain, label = " "];
    label = "";
    v1423 [shape = ellipse, label = "%0 = hal.tensor.export\n!hal.buffer_view"];
    v1424 [shape = ellipse, label = " = func.return\n"];
  }
  subgraph cluster_1425 {
    v1426 [shape = plain, label = " "];
    label = "";
    v1427 [shape = ellipse, label = "%0 = hal.tensor.export\n!hal.buffer_view"];
    v1428 [shape = ellipse, label = " = func.return\n"];
  }
  subgraph cluster_1429 {
    v1430 [shape = plain, label = " "];
    label = "";
    v1431 [shape = ellipse, label = "%0 = hal.tensor.export\n!hal.buffer_view"];
    v1432 [shape = ellipse, label = " = func.return\n"];
  }
  subgraph cluster_1433 {
    v1434 [shape = plain, label = " "];
    label = "";
    v1435 [shape = ellipse, label = "%0 = hal.tensor.export\n!hal.buffer_view"];
    v1436 [shape = ellipse, label = " = func.return\n"];
  }
  subgraph cluster_1437 {
    v1438 [shape = plain, label = " "];
    label = "";
    v1439 [shape = ellipse, label = "%0 = hal.tensor.export\n!hal.buffer_view"];
    v1440 [shape = ellipse, label = " = func.return\n"];
  }
  subgraph cluster_1441 {
    v1442 [shape = plain, label = " "];
    label = "";
    v1443 [shape = ellipse, label = "%0 = hal.tensor.export\n!hal.buffer_view"];
    v1444 [shape = ellipse, label = " = func.return\n"];
  }
  subgraph cluster_1445 {
    v1446 [shape = plain, label = " "];
    label = "";
    v1447 [shape = ellipse, label = "%0 = hal.tensor.export\n!hal.buffer_view"];
    v1448 [shape = ellipse, label = " = func.return\n"];
  }
  subgraph cluster_1449 {
    v1450 [shape = plain, label = " "];
    label = "";
    v1451 [shape = ellipse, label = "%0 = hal.tensor.export\n!hal.buffer_view"];
    v1452 [shape = ellipse, label = " = func.return\n"];
  }
  subgraph cluster_1453 {
    v1454 [shape = plain, label = " "];
    label = "";
    v1455 [shape = ellipse, label = "%0 = hal.tensor.export\n!hal.buffer_view"];
    v1456 [shape = ellipse, label = " = func.return\n"];
  }
  subgraph cluster_1457 {
    v1458 [shape = plain, label = " "];
    label = "";
    v1459 [shape = ellipse, label = "%0 = hal.tensor.export\n!hal.buffer_view"];
    v1460 [shape = ellipse, label = " = func.return\n"];
  }
  subgraph cluster_1461 {
    v1462 [shape = plain, label = " "];
    label = "";
    v1463 [shape = ellipse, label = "%0 = hal.tensor.export\n!hal.buffer_view"];
    v1464 [shape = ellipse, label = " = func.return\n"];
  }
  subgraph cluster_1465 {
    v1466 [shape = plain, label = " "];
    label = "";
    v1467 [shape = ellipse, label = "%0 = hal.tensor.export\n!hal.buffer_view"];
    v1468 [shape = ellipse, label = " = func.return\n"];
  }
  subgraph cluster_1469 {
    v1470 [shape = plain, label = " "];
    label = "";
    v1471 [shape = ellipse, label = "%0 = hal.tensor.export\n!hal.buffer_view"];
    v1472 [shape = ellipse, label = " = func.return\n"];
  }
  subgraph cluster_1473 {
    v1474 [shape = plain, label = " "];
    label = "";
    v1475 [shape = ellipse, label = "%0 = hal.tensor.export\n!hal.buffer_view"];
    v1476 [shape = ellipse, label = " = func.return\n"];
  }
  subgraph cluster_1477 {
    v1478 [shape = plain, label = " "];
    label = "";
    v1479 [shape = ellipse, label = "%0 = hal.tensor.export\n!hal.buffer_view"];
    v1480 [shape = ellipse, label = " = func.return\n"];
  }
  subgraph cluster_1481 {
    v1482 [shape = plain, label = " "];
    label = "";
    v1483 [shape = ellipse, label = "%0 = hal.tensor.export\n!hal.buffer_view"];
    v1484 [shape = ellipse, label = " = func.return\n"];
  }
  subgraph cluster_1485 {
    v1486 [shape = plain, label = " "];
    label = "";
    v1487 [shape = ellipse, label = "%0 = hal.tensor.export\n!hal.buffer_view"];
    v1488 [shape = ellipse, label = " = func.return\n"];
  }
  subgraph cluster_1489 {
    v1490 [shape = plain, label = " "];
    label = "";
    v1491 [shape = ellipse, label = "%0 = hal.tensor.export\n!hal.buffer_view"];
    v1492 [shape = ellipse, label = " = func.return\n"];
  }
  subgraph cluster_1493 {
    v1494 [shape = plain, label = " "];
    label = "";
    v1495 [shape = ellipse, label = "%0 = hal.tensor.export\n!hal.buffer_view"];
    v1496 [shape = ellipse, label = " = func.return\n"];
  }
  subgraph cluster_1497 {
    v1498 [shape = plain, label = " "];
    label = "";
    v1499 [shape = ellipse, label = "%0 = hal.tensor.export\n!hal.buffer_view"];
    v1500 [shape = ellipse, label = " = func.return\n"];
  }
  subgraph cluster_1501 {
    v1502 [shape = plain, label = " "];
    label = "";
    v1503 [shape = ellipse, label = "%0 = hal.tensor.export\n!hal.buffer_view"];
    v1504 [shape = ellipse, label = " = func.return\n"];
  }
  subgraph cluster_1505 {
    v1506 [shape = plain, label = " "];
    label = "";
    v1507 [shape = ellipse, label = "%0 = hal.tensor.export\n!hal.buffer_view"];
    v1508 [shape = ellipse, label = " = func.return\n"];
  }
  subgraph cluster_1509 {
    v1510 [shape = plain, label = " "];
    label = "";
    v1511 [shape = ellipse, label = "%0 = hal.tensor.export\n!hal.buffer_view"];
    v1512 [shape = ellipse, label = " = func.return\n"];
  }
  subgraph cluster_1513 {
    v1514 [shape = plain, label = " "];
    label = "";
    v1515 [shape = ellipse, label = "%0 = hal.tensor.export\n!hal.buffer_view"];
    v1516 [shape = ellipse, label = " = func.return\n"];
  }
  subgraph cluster_1517 {
    v1518 [shape = plain, label = " "];
    label = "";
    v1519 [shape = ellipse, label = "%0 = hal.tensor.export\n!hal.buffer_view"];
    v1520 [shape = ellipse, label = " = func.return\n"];
  }
  subgraph cluster_1521 {
    v1522 [shape = plain, label = " "];
    label = "";
    v1523 [shape = ellipse, label = "%0 = hal.tensor.export\n!hal.buffer_view"];
    v1524 [shape = ellipse, label = " = func.return\n"];
  }
  subgraph cluster_1525 {
    v1526 [shape = plain, label = " "];
    label = "";
    v1527 [shape = ellipse, label = "%0 = hal.tensor.export\n!hal.buffer_view"];
    v1528 [shape = ellipse, label = " = func.return\n"];
  }
  subgraph cluster_1529 {
    v1530 [shape = plain, label = " "];
    label = "";
    v1531 [shape = ellipse, label = "%0 = hal.tensor.export\n!hal.buffer_view"];
    v1532 [shape = ellipse, label = " = func.return\n"];
  }
  subgraph cluster_1533 {
    v1534 [shape = plain, label = " "];
    label = "";
    v1535 [shape = ellipse, label = "%0 = hal.tensor.export\n!hal.buffer_view"];
    v1536 [shape = ellipse, label = " = func.return\n"];
  }
  subgraph cluster_1537 {
    v1538 [shape = plain, label = " "];
    label = "";
    v1539 [shape = ellipse, label = "%0 = hal.tensor.export\n!hal.buffer_view"];
    v1540 [shape = ellipse, label = " = func.return\n"];
  }
  subgraph cluster_1541 {
    v1542 [shape = plain, label = " "];
    label = "";
    v1543 [shape = ellipse, label = "%0 = hal.tensor.export\n!hal.buffer_view"];
    v1544 [shape = ellipse, label = " = func.return\n"];
  }
  subgraph cluster_1545 {
    v1546 [shape = plain, label = " "];
    label = "";
    v1547 [shape = ellipse, label = "%0 = hal.tensor.export\n!hal.buffer_view"];
    v1548 [shape = ellipse, label = " = func.return\n"];
  }
  subgraph cluster_1549 {
    v1550 [shape = plain, label = " "];
    label = "";
    v1551 [shape = ellipse, label = "%0 = hal.tensor.export\n!hal.buffer_view"];
    v1552 [shape = ellipse, label = " = func.return\n"];
  }
  subgraph cluster_1553 {
    v1554 [shape = plain, label = " "];
    label = "";
    v1555 [shape = ellipse, label = "%0 = hal.tensor.export\n!hal.buffer_view"];
    v1556 [shape = ellipse, label = " = func.return\n"];
  }
  subgraph cluster_1557 {
    v1558 [shape = plain, label = " "];
    label = "";
    v1559 [shape = ellipse, label = "%0 = hal.tensor.export\n!hal.buffer_view"];
    v1560 [shape = ellipse, label = " = func.return\n"];
  }
  subgraph cluster_1561 {
    v1562 [shape = plain, label = " "];
    label = "";
    v1563 [shape = ellipse, label = "%0 = hal.tensor.export\n!hal.buffer_view"];
    v1564 [shape = ellipse, label = " = func.return\n"];
  }
  subgraph cluster_1565 {
    v1566 [shape = plain, label = " "];
    label = "";
    v1567 [shape = ellipse, label = "%0 = hal.tensor.export\n!hal.buffer_view"];
    v1568 [shape = ellipse, label = " = func.return\n"];
  }
  subgraph cluster_1569 {
    v1570 [shape = plain, label = " "];
    label = "";
    v1571 [shape = ellipse, label = "%0 = hal.tensor.export\n!hal.buffer_view"];
    v1572 [shape = ellipse, label = " = func.return\n"];
  }
  subgraph cluster_1573 {
    v1574 [shape = plain, label = " "];
    label = "";
    v1575 [shape = ellipse, label = "%0 = hal.tensor.export\n!hal.buffer_view"];
    v1576 [shape = ellipse, label = " = func.return\n"];
  }
  subgraph cluster_1577 {
    v1578 [shape = plain, label = " "];
    label = "";
    v1579 [shape = ellipse, label = "%0 = hal.tensor.export\n!hal.buffer_view"];
    v1580 [shape = ellipse, label = " = func.return\n"];
  }
  subgraph cluster_1581 {
    v1582 [shape = plain, label = " "];
    label = "";
    v1583 [shape = ellipse, label = "%0 = hal.tensor.export\n!hal.buffer_view"];
    v1584 [shape = ellipse, label = " = func.return\n"];
  }
  subgraph cluster_1585 {
    v1586 [shape = plain, label = " "];
    label = "";
    v1587 [shape = ellipse, label = "%0 = hal.tensor.export\n!hal.buffer_view"];
    v1588 [shape = ellipse, label = " = func.return\n"];
  }
  subgraph cluster_1589 {
    v1590 [shape = plain, label = " "];
    label = "";
    v1591 [shape = ellipse, label = "%0 = hal.tensor.export\n!hal.buffer_view"];
    v1592 [shape = ellipse, label = " = func.return\n"];
  }
  subgraph cluster_1593 {
    v1594 [shape = plain, label = " "];
    label = "";
    v1595 [shape = ellipse, label = "%0 = hal.tensor.export\n!hal.buffer_view"];
    v1596 [shape = ellipse, label = " = func.return\n"];
  }
  subgraph cluster_1597 {
    v1598 [shape = plain, label = " "];
    label = "";
    v1599 [shape = ellipse, label = "%0 = hal.tensor.export\n!hal.buffer_view"];
    v1600 [shape = ellipse, label = " = func.return\n"];
  }
  subgraph cluster_1601 {
    v1602 [shape = plain, label = " "];
    label = "";
    v1603 [shape = ellipse, label = "%0 = hal.tensor.export\n!hal.buffer_view"];
    v1604 [shape = ellipse, label = " = func.return\n"];
  }
  subgraph cluster_1605 {
    v1606 [shape = plain, label = " "];
    label = "";
    v1607 [shape = ellipse, label = "%0 = hal.tensor.export\n!hal.buffer_view"];
    v1608 [shape = ellipse, label = " = func.return\n"];
  }
  subgraph cluster_1609 {
    v1610 [shape = plain, label = " "];
    label = "";
    v1611 [shape = ellipse, label = "%0 = hal.tensor.export\n!hal.buffer_view"];
    v1612 [shape = ellipse, label = " = func.return\n"];
  }
  subgraph cluster_1613 {
    v1614 [shape = plain, label = " "];
    label = "";
    v1615 [shape = ellipse, label = "%0 = hal.tensor.export\n!hal.buffer_view"];
    v1616 [shape = ellipse, label = " = func.return\n"];
  }
  subgraph cluster_1617 {
    v1618 [shape = plain, label = " "];
    label = "";
    v1619 [shape = ellipse, label = "%0 = hal.tensor.export\n!hal.buffer_view"];
    v1620 [shape = ellipse, label = " = func.return\n"];
  }
  subgraph cluster_1621 {
    v1622 [shape = plain, label = " "];
    label = "";
    v1623 [shape = ellipse, label = "%0 = hal.tensor.export\n!hal.buffer_view"];
    v1624 [shape = ellipse, label = " = func.return\n"];
  }
  subgraph cluster_1625 {
    v1626 [shape = plain, label = " "];
    label = "";
    v1627 [shape = ellipse, label = "%0 = hal.tensor.export\n!hal.buffer_view"];
    v1628 [shape = ellipse, label = " = func.return\n"];
  }
  subgraph cluster_1629 {
    v1630 [shape = plain, label = " "];
    label = "";
    v1631 [shape = ellipse, label = "%0 = hal.tensor.export\n!hal.buffer_view"];
    v1632 [shape = ellipse, label = " = func.return\n"];
  }
  subgraph cluster_1633 {
    v1634 [shape = plain, label = " "];
    label = "";
    v1635 [shape = ellipse, label = "%0 = hal.tensor.export\n!hal.buffer_view"];
    v1636 [shape = ellipse, label = " = func.return\n"];
  }
  subgraph cluster_1637 {
    v1638 [shape = plain, label = " "];
    label = "";
    v1639 [shape = ellipse, label = "%0 = hal.tensor.export\n!hal.buffer_view"];
    v1640 [shape = ellipse, label = " = func.return\n"];
  }
  subgraph cluster_1641 {
    v1642 [shape = plain, label = " "];
    label = "";
    v1643 [shape = ellipse, label = "%0 = hal.tensor.export\n!hal.buffer_view"];
    v1644 [shape = ellipse, label = " = func.return\n"];
  }
  subgraph cluster_1645 {
    v1646 [shape = plain, label = " "];
    label = "";
    v1647 [shape = ellipse, label = "%0 = hal.tensor.export\n!hal.buffer_view"];
    v1648 [shape = ellipse, label = " = func.return\n"];
  }
  subgraph cluster_1649 {
    v1650 [shape = plain, label = " "];
    label = "";
    v1651 [shape = ellipse, label = "%0 = hal.tensor.export\n!hal.buffer_view"];
    v1652 [shape = ellipse, label = " = func.return\n"];
  }
  subgraph cluster_1653 {
    v1654 [shape = plain, label = " "];
    label = "";
    v1655 [shape = ellipse, label = "%0 = hal.tensor.export\n!hal.buffer_view"];
    v1656 [shape = ellipse, label = " = func.return\n"];
  }
  subgraph cluster_1657 {
    v1658 [shape = plain, label = " "];
    label = "";
    v1659 [shape = ellipse, label = "%0 = hal.tensor.export\n!hal.buffer_view"];
    v1660 [shape = ellipse, label = " = func.return\n"];
  }
  subgraph cluster_1661 {
    v1662 [shape = plain, label = " "];
    label = "";
    v1663 [shape = ellipse, label = "%0 = hal.tensor.export\n!hal.buffer_view"];
    v1664 [shape = ellipse, label = " = func.return\n"];
  }
  subgraph cluster_1665 {
    v1666 [shape = plain, label = " "];
    label = "";
    v1667 [shape = ellipse, label = "%0 = hal.tensor.export\n!hal.buffer_view"];
    v1668 [shape = ellipse, label = " = func.return\n"];
  }
  subgraph cluster_1669 {
    v1670 [shape = plain, label = " "];
    label = "";
    v1671 [shape = ellipse, label = "%0 = hal.tensor.export\n!hal.buffer_view"];
    v1672 [shape = ellipse, label = " = func.return\n"];
  }
  subgraph cluster_1673 {
    v1674 [shape = plain, label = " "];
    label = "";
    v1675 [shape = ellipse, label = "%0 = hal.tensor.export\n!hal.buffer_view"];
    v1676 [shape = ellipse, label = " = func.return\n"];
  }
  subgraph cluster_1677 {
    v1678 [shape = plain, label = " "];
    label = "";
    v1679 [shape = ellipse, label = "%0 = hal.tensor.export\n!hal.buffer_view"];
    v1680 [shape = ellipse, label = " = func.return\n"];
  }
  subgraph cluster_1681 {
    v1682 [shape = plain, label = " "];
    label = "";
    v1683 [shape = ellipse, label = "%0 = hal.tensor.export\n!hal.buffer_view"];
    v1684 [shape = ellipse, label = " = func.return\n"];
  }
  subgraph cluster_1685 {
    v1686 [shape = plain, label = " "];
    label = "";
    v1687 [shape = ellipse, label = "%0 = hal.tensor.export\n!hal.buffer_view"];
    v1688 [shape = ellipse, label = " = func.return\n"];
  }
  subgraph cluster_1689 {
    v1690 [shape = plain, label = " "];
    label = "";
    v1691 [shape = ellipse, label = "%0 = hal.tensor.export\n!hal.buffer_view"];
    v1692 [shape = ellipse, label = " = func.return\n"];
  }
  subgraph cluster_1693 {
    v1694 [shape = plain, label = " "];
    label = "";
    v1695 [shape = ellipse, label = "%0 = hal.tensor.export\n!hal.buffer_view"];
    v1696 [shape = ellipse, label = " = func.return\n"];
  }
  subgraph cluster_1697 {
    v1698 [shape = plain, label = " "];
    label = "";
    v1699 [shape = ellipse, label = "%0 = hal.tensor.export\n!hal.buffer_view"];
    v1700 [shape = ellipse, label = " = func.return\n"];
  }
  subgraph cluster_1701 {
    v1702 [shape = plain, label = " "];
    label = "";
    v1703 [shape = ellipse, label = "%0 = hal.tensor.export\n!hal.buffer_view"];
    v1704 [shape = ellipse, label = " = func.return\n"];
  }
  subgraph cluster_1705 {
    v1706 [shape = plain, label = " "];
    label = "";
    v1707 [shape = ellipse, label = "%0 = hal.tensor.export\n!hal.buffer_view"];
    v1708 [shape = ellipse, label = " = func.return\n"];
  }
  subgraph cluster_1709 {
    v1710 [shape = plain, label = " "];
    label = "";
    v1711 [shape = ellipse, label = "%0 = hal.tensor.export\n!hal.buffer_view"];
    v1712 [shape = ellipse, label = " = func.return\n"];
  }
  subgraph cluster_1713 {
    v1714 [shape = plain, label = " "];
    label = "";
    v1715 [shape = ellipse, label = "%0 = hal.tensor.export\n!hal.buffer_view"];
    v1716 [shape = ellipse, label = " = func.return\n"];
  }
  subgraph cluster_1717 {
    v1718 [shape = plain, label = " "];
    label = "";
    v1719 [shape = ellipse, label = "%0 = hal.tensor.export\n!hal.buffer_view"];
    v1720 [shape = ellipse, label = " = func.return\n"];
  }
  subgraph cluster_1721 {
    v1722 [shape = plain, label = " "];
    label = "";
    v1723 [shape = ellipse, label = "%0 = hal.tensor.export\n!hal.buffer_view"];
    v1724 [shape = ellipse, label = " = func.return\n"];
  }
  subgraph cluster_1725 {
    v1726 [shape = plain, label = " "];
    label = "";
    v1727 [shape = ellipse, label = "%0 = hal.tensor.export\n!hal.buffer_view"];
    v1728 [shape = ellipse, label = " = func.return\n"];
  }
  subgraph cluster_1729 {
    v1730 [shape = plain, label = " "];
    label = "";
    v1731 [shape = ellipse, label = "%0 = hal.tensor.export\n!hal.buffer_view"];
    v1732 [shape = ellipse, label = " = func.return\n"];
  }
  subgraph cluster_1733 {
    v1734 [shape = plain, label = " "];
    label = "";
    v1735 [shape = ellipse, label = "%0 = hal.tensor.export\n!hal.buffer_view"];
    v1736 [shape = ellipse, label = " = func.return\n"];
  }
  subgraph cluster_1737 {
    v1738 [shape = plain, label = " "];
    label = "";
    v1739 [shape = ellipse, label = "%0 = hal.tensor.export\n!hal.buffer_view"];
    v1740 [shape = ellipse, label = " = func.return\n"];
  }
  subgraph cluster_1741 {
    v1742 [shape = plain, label = " "];
    label = "";
    v1743 [shape = ellipse, label = "%0 = hal.tensor.export\n!hal.buffer_view"];
    v1744 [shape = ellipse, label = " = func.return\n"];
  }
  subgraph cluster_1745 {
    v1746 [shape = plain, label = " "];
    label = "";
    v1747 [shape = ellipse, label = "%0 = hal.tensor.export\n!hal.buffer_view"];
    v1748 [shape = ellipse, label = " = func.return\n"];
  }
  subgraph cluster_1749 {
    v1750 [shape = plain, label = " "];
    label = "";
    v1751 [shape = ellipse, label = "%0 = hal.tensor.export\n!hal.buffer_view"];
    v1752 [shape = ellipse, label = " = func.return\n"];
  }
  subgraph cluster_1753 {
    v1754 [shape = plain, label = " "];
    label = "";
    v1755 [shape = ellipse, label = "%0 = hal.tensor.export\n!hal.buffer_view"];
    v1756 [shape = ellipse, label = " = func.return\n"];
  }
  subgraph cluster_1757 {
    v1758 [shape = plain, label = " "];
    label = "";
    v1759 [shape = ellipse, label = "%0 = hal.tensor.export\n!hal.buffer_view"];
    v1760 [shape = ellipse, label = " = func.return\n"];
  }
  subgraph cluster_1761 {
    v1762 [shape = plain, label = " "];
    label = "";
    v1763 [shape = ellipse, label = "%0 = hal.tensor.export\n!hal.buffer_view"];
    v1764 [shape = ellipse, label = " = func.return\n"];
  }
  subgraph cluster_1765 {
    v1766 [shape = plain, label = " "];
    label = "";
    v1767 [shape = ellipse, label = "%0 = hal.tensor.export\n!hal.buffer_view"];
    v1768 [shape = ellipse, label = " = func.return\n"];
  }
  subgraph cluster_1769 {
    v1770 [shape = plain, label = " "];
    label = "";
    v1771 [shape = ellipse, label = "%0 = hal.tensor.export\n!hal.buffer_view"];
    v1772 [shape = ellipse, label = " = func.return\n"];
  }
  subgraph cluster_1773 {
    v1774 [shape = plain, label = " "];
    label = "";
    v1775 [shape = ellipse, label = "%0 = hal.tensor.export\n!hal.buffer_view"];
    v1776 [shape = ellipse, label = " = func.return\n"];
  }
  subgraph cluster_1777 {
    v1778 [shape = plain, label = " "];
    label = "";
    v1779 [shape = ellipse, label = "%0 = hal.tensor.export\n!hal.buffer_view"];
    v1780 [shape = ellipse, label = " = func.return\n"];
  }
  subgraph cluster_1781 {
    v1782 [shape = plain, label = " "];
    label = "";
    v1783 [shape = ellipse, label = "%0 = hal.tensor.export\n!hal.buffer_view"];
    v1784 [shape = ellipse, label = " = func.return\n"];
  }
  subgraph cluster_1785 {
    v1786 [shape = plain, label = " "];
    label = "";
    v1787 [shape = ellipse, label = "%0 = hal.tensor.export\n!hal.buffer_view"];
    v1788 [shape = ellipse, label = " = func.return\n"];
  }
  subgraph cluster_1789 {
    v1790 [shape = plain, label = " "];
    label = "";
    v1791 [shape = ellipse, label = "%0 = hal.tensor.export\n!hal.buffer_view"];
    v1792 [shape = ellipse, label = " = func.return\n"];
  }
  subgraph cluster_1793 {
    v1794 [shape = plain, label = " "];
    label = "";
    v1795 [shape = ellipse, label = "%0 = hal.tensor.export\n!hal.buffer_view"];
    v1796 [shape = ellipse, label = " = func.return\n"];
  }
  subgraph cluster_1797 {
    v1798 [shape = plain, label = " "];
    label = "";
    v1799 [shape = ellipse, label = "%0 = hal.tensor.export\n!hal.buffer_view"];
    v1800 [shape = ellipse, label = " = func.return\n"];
  }
  subgraph cluster_1801 {
    v1802 [shape = plain, label = " "];
    label = "";
    v1803 [shape = ellipse, label = "%0 = hal.tensor.export\n!hal.buffer_view"];
    v1804 [shape = ellipse, label = " = func.return\n"];
  }
  subgraph cluster_1805 {
    v1806 [shape = plain, label = " "];
    label = "";
    v1807 [shape = ellipse, label = "%0 = hal.tensor.export\n!hal.buffer_view"];
    v1808 [shape = ellipse, label = " = func.return\n"];
  }
  subgraph cluster_1809 {
    v1810 [shape = plain, label = " "];
    label = "";
    v1811 [shape = ellipse, label = "%0 = hal.tensor.export\n!hal.buffer_view"];
    v1812 [shape = ellipse, label = " = func.return\n"];
  }
  subgraph cluster_1813 {
    v1814 [shape = plain, label = " "];
    label = "";
    v1815 [shape = ellipse, label = "%0 = hal.tensor.export\n!hal.buffer_view"];
    v1816 [shape = ellipse, label = " = func.return\n"];
  }
  subgraph cluster_1817 {
    v1818 [shape = plain, label = " "];
    label = "";
    v1819 [shape = ellipse, label = "%0 = hal.tensor.export\n!hal.buffer_view"];
    v1820 [shape = ellipse, label = " = func.return\n"];
  }
  subgraph cluster_1821 {
    v1822 [shape = plain, label = " "];
    label = "";
    v1823 [shape = ellipse, label = "%0 = hal.tensor.export\n!hal.buffer_view"];
    v1824 [shape = ellipse, label = " = func.return\n"];
  }
  subgraph cluster_1825 {
    v1826 [shape = plain, label = " "];
    label = "";
    v1827 [shape = ellipse, label = "%0 = hal.tensor.export\n!hal.buffer_view"];
    v1828 [shape = ellipse, label = " = func.return\n"];
  }
  subgraph cluster_1829 {
    v1830 [shape = plain, label = " "];
    label = "";
    v1831 [shape = ellipse, label = "%0 = hal.tensor.export\n!hal.buffer_view"];
    v1832 [shape = ellipse, label = " = func.return\n"];
  }
  subgraph cluster_1833 {
    v1834 [shape = plain, label = " "];
    label = "";
    v1835 [shape = ellipse, label = "%0 = hal.tensor.export\n!hal.buffer_view"];
    v1836 [shape = ellipse, label = " = func.return\n"];
  }
  subgraph cluster_1837 {
    v1838 [shape = plain, label = " "];
    label = "";
    v1839 [shape = ellipse, label = "%0 = hal.tensor.export\n!hal.buffer_view"];
    v1840 [shape = ellipse, label = " = func.return\n"];
  }
  subgraph cluster_1841 {
    v1842 [shape = plain, label = " "];
    label = "";
    v1843 [shape = ellipse, label = "%0 = hal.tensor.export\n!hal.buffer_view"];
    v1844 [shape = ellipse, label = " = func.return\n"];
  }
  subgraph cluster_1845 {
    v1846 [shape = plain, label = " "];
    label = "";
    v1847 [shape = ellipse, label = "%0 = hal.tensor.export\n!hal.buffer_view"];
    v1848 [shape = ellipse, label = " = func.return\n"];
  }
  subgraph cluster_1849 {
    v1850 [shape = plain, label = " "];
    label = "";
    v1851 [shape = ellipse, label = "%0 = hal.tensor.export\n!hal.buffer_view"];
    v1852 [shape = ellipse, label = " = func.return\n"];
  }
  subgraph cluster_1853 {
    v1854 [shape = plain, label = " "];
    label = "";
    v1855 [shape = ellipse, label = "%0 = hal.tensor.export\n!hal.buffer_view"];
    v1856 [shape = ellipse, label = " = func.return\n"];
  }
  subgraph cluster_1857 {
    v1858 [shape = plain, label = " "];
    label = "";
    v1859 [shape = ellipse, label = "%0 = hal.tensor.export\n!hal.buffer_view"];
    v1860 [shape = ellipse, label = " = func.return\n"];
  }
  subgraph cluster_1861 {
    v1862 [shape = plain, label = " "];
    label = "";
    v1863 [shape = ellipse, label = "%0 = hal.tensor.export\n!hal.buffer_view"];
    v1864 [shape = ellipse, label = " = func.return\n"];
  }
  subgraph cluster_1865 {
    v1866 [shape = plain, label = " "];
    label = "";
    v1867 [shape = ellipse, label = "%0 = hal.tensor.export\n!hal.buffer_view"];
    v1868 [shape = ellipse, label = " = func.return\n"];
  }
  subgraph cluster_1869 {
    v1870 [shape = plain, label = " "];
    label = "";
    v1871 [shape = ellipse, label = "%0 = hal.tensor.export\n!hal.buffer_view"];
    v1872 [shape = ellipse, label = " = func.return\n"];
  }
  subgraph cluster_1873 {
    v1874 [shape = plain, label = " "];
    label = "";
    v1875 [shape = ellipse, label = "%0 = hal.tensor.export\n!hal.buffer_view"];
    v1876 [shape = ellipse, label = " = func.return\n"];
  }
  subgraph cluster_1877 {
    v1878 [shape = plain, label = " "];
    label = "";
    v1879 [shape = ellipse, label = "%0 = hal.tensor.export\n!hal.buffer_view"];
    v1880 [shape = ellipse, label = " = func.return\n"];
  }
  subgraph cluster_1881 {
    v1882 [shape = plain, label = " "];
    label = "";
    v1883 [shape = ellipse, label = "%0 = hal.tensor.export\n!hal.buffer_view"];
    v1884 [shape = ellipse, label = " = func.return\n"];
  }
  subgraph cluster_1885 {
    v1886 [shape = plain, label = " "];
    label = "";
    v1887 [shape = ellipse, label = "%0 = hal.tensor.export\n!hal.buffer_view"];
    v1888 [shape = ellipse, label = " = func.return\n"];
  }
  subgraph cluster_1889 {
    v1890 [shape = plain, label = " "];
    label = "";
    v1891 [shape = ellipse, label = "%0 = hal.tensor.export\n!hal.buffer_view"];
    v1892 [shape = ellipse, label = " = func.return\n"];
  }
  subgraph cluster_1893 {
    v1894 [shape = plain, label = " "];
    label = "";
    v1895 [shape = ellipse, label = "%0 = hal.tensor.export\n!hal.buffer_view"];
    v1896 [shape = ellipse, label = " = func.return\n"];
  }
  subgraph cluster_1897 {
    v1898 [shape = plain, label = " "];
    label = "";
    v1899 [shape = ellipse, label = "%0 = hal.tensor.export\n!hal.buffer_view"];
    v1900 [shape = ellipse, label = " = func.return\n"];
  }
  subgraph cluster_1901 {
    v1902 [shape = plain, label = " "];
    label = "";
    v1903 [shape = ellipse, label = "%0 = hal.tensor.export\n!hal.buffer_view"];
    v1904 [shape = ellipse, label = " = func.return\n"];
  }
  subgraph cluster_1905 {
    v1906 [shape = plain, label = " "];
    label = "";
    v1907 [shape = ellipse, label = "%0 = hal.tensor.export\n!hal.buffer_view"];
    v1908 [shape = ellipse, label = " = func.return\n"];
  }
  subgraph cluster_1909 {
    v1910 [shape = plain, label = " "];
    label = "";
    v1911 [shape = ellipse, label = "%0 = hal.tensor.export\n!hal.buffer_view"];
    v1912 [shape = ellipse, label = " = func.return\n"];
  }
  subgraph cluster_1913 {
    v1914 [shape = plain, label = " "];
    label = "";
    v1915 [shape = ellipse, label = "%0 = hal.tensor.export\n!hal.buffer_view"];
    v1916 [shape = ellipse, label = " = func.return\n"];
  }
  subgraph cluster_1917 {
    v1918 [shape = plain, label = " "];
    label = "";
    v1919 [shape = ellipse, label = "%0 = hal.tensor.export\n!hal.buffer_view"];
    v1920 [shape = ellipse, label = " = func.return\n"];
  }
  subgraph cluster_1921 {
    v1922 [shape = plain, label = " "];
    label = "";
    v1923 [shape = ellipse, label = "%0 = hal.tensor.export\n!hal.buffer_view"];
    v1924 [shape = ellipse, label = " = func.return\n"];
  }
  subgraph cluster_1925 {
    v1926 [shape = plain, label = " "];
    label = "";
    v1927 [shape = ellipse, label = "%0 = hal.tensor.export\n!hal.buffer_view"];
    v1928 [shape = ellipse, label = " = func.return\n"];
  }
  subgraph cluster_1929 {
    v1930 [shape = plain, label = " "];
    label = "";
    v1931 [shape = ellipse, label = "%0 = hal.tensor.export\n!hal.buffer_view"];
    v1932 [shape = ellipse, label = " = func.return\n"];
  }
  subgraph cluster_1933 {
    v1934 [shape = plain, label = " "];
    label = "";
    v1935 [shape = ellipse, label = "%0 = hal.tensor.export\n!hal.buffer_view"];
    v1936 [shape = ellipse, label = " = func.return\n"];
  }
  subgraph cluster_1937 {
    v1938 [shape = plain, label = " "];
    label = "";
    v1939 [shape = ellipse, label = "%0 = hal.tensor.export\n!hal.buffer_view"];
    v1940 [shape = ellipse, label = " = func.return\n"];
  }
  subgraph cluster_1941 {
    v1942 [shape = plain, label = " "];
    label = "";
    v1943 [shape = ellipse, label = "%0 = hal.tensor.export\n!hal.buffer_view"];
    v1944 [shape = ellipse, label = " = func.return\n"];
  }
  subgraph cluster_1945 {
    v1946 [shape = plain, label = " "];
    label = "";
    v1947 [shape = ellipse, label = "%0 = hal.tensor.export\n!hal.buffer_view"];
    v1948 [shape = ellipse, label = " = func.return\n"];
  }
  subgraph cluster_1949 {
    v1950 [shape = plain, label = " "];
    label = "";
    v1951 [shape = ellipse, label = "%0 = hal.tensor.export\n!hal.buffer_view"];
    v1952 [shape = ellipse, label = " = func.return\n"];
  }
  subgraph cluster_1953 {
    v1954 [shape = plain, label = " "];
    label = "";
    v1955 [shape = ellipse, label = "%0 = hal.tensor.export\n!hal.buffer_view"];
    v1956 [shape = ellipse, label = " = func.return\n"];
  }
  subgraph cluster_1957 {
    v1958 [shape = plain, label = " "];
    label = "";
    v1959 [shape = ellipse, label = "%0 = hal.tensor.export\n!hal.buffer_view"];
    v1960 [shape = ellipse, label = " = func.return\n"];
  }
  subgraph cluster_1961 {
    v1962 [shape = plain, label = " "];
    label = "";
    v1963 [shape = ellipse, label = "%0 = hal.tensor.export\n!hal.buffer_view"];
    v1964 [shape = ellipse, label = " = func.return\n"];
  }
  subgraph cluster_1965 {
    v1966 [shape = plain, label = " "];
    label = "";
    v1967 [shape = ellipse, label = "%0 = hal.tensor.export\n!hal.buffer_view"];
    v1968 [shape = ellipse, label = " = func.return\n"];
  }
  subgraph cluster_1969 {
    v1970 [shape = plain, label = " "];
    label = "";
    v1971 [shape = ellipse, label = "%0 = hal.tensor.export\n!hal.buffer_view"];
    v1972 [shape = ellipse, label = " = func.return\n"];
  }
  subgraph cluster_1973 {
    v1974 [shape = plain, label = " "];
    label = "";
    v1975 [shape = ellipse, label = "%0 = hal.tensor.export\n!hal.buffer_view"];
    v1976 [shape = ellipse, label = " = func.return\n"];
  }
  subgraph cluster_1977 {
    v1978 [shape = plain, label = " "];
    label = "";
    v1979 [shape = ellipse, label = "%0 = hal.tensor.export\n!hal.buffer_view"];
    v1980 [shape = ellipse, label = " = func.return\n"];
  }
  subgraph cluster_1981 {
    v1982 [shape = plain, label = " "];
    label = "";
    v1983 [shape = ellipse, label = "%0 = hal.tensor.export\n!hal.buffer_view"];
    v1984 [shape = ellipse, label = " = func.return\n"];
  }
  subgraph cluster_1985 {
    v1986 [shape = plain, label = " "];
    label = "";
    v1987 [shape = ellipse, label = "%0 = hal.tensor.export\n!hal.buffer_view"];
    v1988 [shape = ellipse, label = " = func.return\n"];
  }
  subgraph cluster_1989 {
    v1990 [shape = plain, label = " "];
    label = "";
    v1991 [shape = ellipse, label = "%0 = hal.tensor.export\n!hal.buffer_view"];
    v1992 [shape = ellipse, label = " = func.return\n"];
  }
  subgraph cluster_1993 {
    v1994 [shape = plain, label = " "];
    label = "";
    v1995 [shape = ellipse, label = "%0 = hal.tensor.export\n!hal.buffer_view"];
    v1996 [shape = ellipse, label = " = func.return\n"];
  }
  subgraph cluster_1997 {
    v1998 [shape = plain, label = " "];
    label = "";
    v1999 [shape = ellipse, label = "%0 = hal.tensor.export\n!hal.buffer_view"];
    v2000 [shape = ellipse, label = " = func.return\n"];
  }
  subgraph cluster_2001 {
    v2002 [shape = plain, label = " "];
    label = "";
    v2003 [shape = ellipse, label = "%0 = hal.tensor.export\n!hal.buffer_view"];
    v2004 [shape = ellipse, label = " = func.return\n"];
  }
  subgraph cluster_2005 {
    v2006 [shape = plain, label = " "];
    label = "";
    v2007 [shape = ellipse, label = "%0 = hal.tensor.export\n!hal.buffer_view"];
    v2008 [shape = ellipse, label = " = func.return\n"];
  }
  subgraph cluster_2009 {
    v2010 [shape = plain, label = " "];
    label = "";
    v2011 [shape = ellipse, label = "%0 = hal.tensor.export\n!hal.buffer_view"];
    v2012 [shape = ellipse, label = " = func.return\n"];
  }
  subgraph cluster_2013 {
    v2014 [shape = plain, label = " "];
    label = "";
    v2015 [shape = ellipse, label = "%0 = hal.tensor.export\n!hal.buffer_view"];
    v2016 [shape = ellipse, label = " = func.return\n"];
  }
  subgraph cluster_2017 {
    v2018 [shape = plain, label = " "];
    label = "";
    v2019 [shape = ellipse, label = "%0 = hal.tensor.export\n!hal.buffer_view"];
    v2020 [shape = ellipse, label = " = func.return\n"];
  }
  subgraph cluster_2021 {
    v2022 [shape = plain, label = " "];
    label = "";
    v2023 [shape = ellipse, label = "%0 = hal.tensor.export\n!hal.buffer_view"];
    v2024 [shape = ellipse, label = " = func.return\n"];
  }
  subgraph cluster_2025 {
    v2026 [shape = plain, label = " "];
    label = "";
    v2027 [shape = ellipse, label = "%0 = hal.tensor.export\n!hal.buffer_view"];
    v2028 [shape = ellipse, label = " = func.return\n"];
  }
  subgraph cluster_2029 {
    v2030 [shape = plain, label = " "];
    label = "";
    v2031 [shape = ellipse, label = "%0 = hal.tensor.export\n!hal.buffer_view"];
    v2032 [shape = ellipse, label = " = func.return\n"];
  }
  subgraph cluster_2033 {
    v2034 [shape = plain, label = " "];
    label = "";
    v2035 [shape = ellipse, label = "%0 = hal.tensor.export\n!hal.buffer_view"];
    v2036 [shape = ellipse, label = " = func.return\n"];
  }
  subgraph cluster_2037 {
    v2038 [shape = plain, label = " "];
    label = "";
    v2039 [shape = box, label = "arg0"];
    v2040 [shape = box, label = "arg1"];
    v2041 [shape = ellipse, label = "%0 = hal.tensor.import\ntensor<1x512xi32>"];
    v2042 [shape = ellipse, label = "%1 = hal.tensor.import\ntensor<1x512xi32>"];
    v2043 [shape = box, label = "%2 = flow.dispatch[]\n@forward_dispatch_0::@forward_dispatch_0_generic_1x512x1024_i32xf32(%cst_507, %1)\n%0 = flow.dispatch.tensor.load %arg0 -> tensor<32128x1024xf32>\l%1 = flow.dispatch.tensor.load %arg1 -> tensor<1x512xi32>\l%2 = tensor.empty() : tensor<1x512x1024xf32>\l%3 = linalg.generic[parallel, parallel, parallel] (%1) -> (%2)\l        %4 = arith.index_cast %in : i32 to index\l        %5 = linalg.index 2 : index\l        %extracted = tensor.extract %0[%4, %5] : tensor<32128x1024xf32>\l        linalg.yield %extracted : f32\lflow.dispatch.tensor.store %3, %arg2\ltensor<1x512x1024xf32>"];
    v2044 [shape = ellipse, label = "%3 = flow.tensor.reshape\ntensor<512x1024xf32>"];
    v2045 [shape = box, label = "%4 = flow.dispatch[]\n@forward_dispatch_0::@forward_dispatch_0_generic_1x512x1024_i32xf32(%cst_507, %0)\n%0 = flow.dispatch.tensor.load %arg0 -> tensor<32128x1024xf32>\l%1 = flow.dispatch.tensor.load %arg1 -> tensor<1x512xi32>\l%2 = tensor.empty() : tensor<1x512x1024xf32>\l%3 = linalg.generic[parallel, parallel, parallel] (%1) -> (%2)\l        %4 = arith.index_cast %in : i32 to index\l        %5 = linalg.index 2 : index\l        %extracted = tensor.extract %0[%4, %5] : tensor<32128x1024xf32>\l        linalg.yield %extracted : f32\lflow.dispatch.tensor.store %3, %arg2\ltensor<1x512x1024xf32>"];
    v2046 [shape = ellipse, label = "%5 = flow.tensor.reshape\ntensor<512x1024xf32>"];
    v2047 [shape = box, label = "%6 = flow.dispatch[]\n@forward_dispatch_2::@forward_dispatch_2_generic_512x1024_f32(%3, %cst_506)\n%0 = flow.dispatch.tensor.load %arg0 -> tensor<512x1024xf32>\l%1 = flow.dispatch.tensor.load %arg1 -> tensor<1024xf32>\l%2 = tensor.empty() : tensor<512x1024xf32>\l%3 = tensor.empty() : tensor<512xf32>\l%4 = linalg.fill ins(%cst : f32) outs(%3 : tensor<512xf32>) -> tensor<512xf32>\l%5 = linalg.generic[parallel, reduction] (%0) -> (%4)\l        %7 = arith.mulf %in, %in : f32\l        %8 = arith.addf %out, %7 : f32\l        linalg.yield %8 : f32\l%6 = linalg.generic[parallel, parallel] (%1, %0, %5) -> (%2)\l        %7 = arith.divf %in_3, %cst_0 : f32\l        %8 = arith.addf %7, %cst_1 : f32\l        %9 = math.rsqrt %8 : f32\l        %10 = arith.mulf %in_2, %9 : f32\l        %11 = arith.mulf %in, %10 : f32\l        linalg.yield %11 : f32\lflow.dispatch.tensor.store %6, %arg2\ltensor<512x1024xf32>"];
    v2048 [shape = box, label = "%7 = flow.dispatch[]\n@forward_dispatch_3::@forward_dispatch_3_generic_16x512x512_i32xf32xf32(%cst_505, %cst_509, %cst_510)\n%0 = flow.dispatch.tensor.load %arg0 -> tensor<32x16xf32>\l%1 = flow.dispatch.tensor.load %arg1 -> tensor<512x512xi32>\l%2 = flow.dispatch.tensor.load %arg2 -> tensor<512x512xf32>\l%3 = tensor.empty() : tensor<16x512x512xf32>\l%4 = linalg.generic[parallel, parallel, parallel] (%1, %2) -> (%3)\l        %5 = linalg.index 0 : index\l        %6 = arith.index_cast %in : i32 to index\l        %extracted = tensor.extract %0[%6, %5] : tensor<32x16xf32>\l        %7 = arith.addf %extracted, %in_0 : f32\l        linalg.yield %7 : f32\lflow.dispatch.tensor.store %4, %arg3\ltensor<16x512x512xf32>"];
    v2049 [shape = box, label = "%8 = flow.dispatch[]\n@forward_dispatch_4::@forward_dispatch_4_matmul_512x1024x1024_f32(%6, %cst_504)\n%0 = flow.dispatch.tensor.load %arg0 -> tensor<512x1024xf32>\l%1 = flow.dispatch.tensor.load %arg1 -> tensor<1024x1024xf32>\l%2 = tensor.empty() : tensor<512x1024xf32>\l%3 = linalg.fill ins(%cst : f32) outs(%2 : tensor<512x1024xf32>) -> tensor<512x1024xf32>\l%4 = linalg.matmul[parallel, parallel, reduction] (%0, %1) -> (%3)\lflow.dispatch.tensor.store %4, %arg2\ltensor<512x1024xf32>"];
    v2050 [shape = ellipse, label = "%9 = flow.tensor.reshape\ntensor<512x16x64xf32>"];
    v2051 [shape = box, label = "%10 = flow.dispatch[]\n@forward_dispatch_4::@forward_dispatch_4_matmul_512x1024x1024_f32(%6, %cst_502)\n%0 = flow.dispatch.tensor.load %arg0 -> tensor<512x1024xf32>\l%1 = flow.dispatch.tensor.load %arg1 -> tensor<1024x1024xf32>\l%2 = tensor.empty() : tensor<512x1024xf32>\l%3 = linalg.fill ins(%cst : f32) outs(%2 : tensor<512x1024xf32>) -> tensor<512x1024xf32>\l%4 = linalg.matmul[parallel, parallel, reduction] (%0, %1) -> (%3)\lflow.dispatch.tensor.store %4, %arg2\ltensor<512x1024xf32>"];
    v2052 [shape = ellipse, label = "%11 = flow.tensor.reshape\ntensor<512x16x64xf32>"];
    v2053 [shape = box, label = "%12 = flow.dispatch[]\n@forward_dispatch_6::@forward_dispatch_6_generic_16x512x512x64_f32(%11, %9, %7)\n%0 = flow.dispatch.tensor.load %arg0 -> tensor<512x16x64xf32>\l%1 = flow.dispatch.tensor.load %arg1 -> tensor<512x16x64xf32>\l%2 = flow.dispatch.tensor.load %arg2 -> tensor<16x512x512xf32>\l%3 = tensor.empty() : tensor<16x512x512xf32>\l%4 = linalg.fill ins(%cst : f32) outs(%3 : tensor<16x512x512xf32>) -> tensor<16x512x512xf32>\l%5 = linalg.generic[parallel, parallel, parallel, reduction] (%0, %1) -> (%4)\l        %7 = arith.mulf %in, %in_1 : f32\l        %8 = arith.addf %out, %7 : f32\l        linalg.yield %8 : f32\l%6 = linalg.generic[parallel, parallel, parallel] (%5, %2) -> (%3)\l        %7 = arith.addf %in, %in_1 : f32\l        %8 = arith.addf %7, %cst_0 : f32\l        linalg.yield %8 : f32\lflow.dispatch.tensor.store %6, %arg3\ltensor<16x512x512xf32>"];
    v2054 [shape = box, label = "%13 = flow.dispatch[]\n@forward_dispatch_7::@forward_dispatch_7_softmax_16x512x512xf32(%12)\n%0 = flow.dispatch.tensor.load %arg0 -> tensor<16x512x512xf32>\l%1 = tensor.empty() : tensor<16x512x512xf32>\l%2 = iree_linalg_ext.softmax dimension(2) ins(%0 : tensor<16x512x512xf32>) outs(%1 : tensor<16x512x512xf32>) -> tensor<16x512x512xf32>\lflow.dispatch.tensor.store %2, %arg1\ltensor<16x512x512xf32>"];
    v2055 [shape = box, label = "%14 = flow.dispatch[]\n@forward_dispatch_4::@forward_dispatch_4_matmul_512x1024x1024_f32(%6, %cst_501)\n%0 = flow.dispatch.tensor.load %arg0 -> tensor<512x1024xf32>\l%1 = flow.dispatch.tensor.load %arg1 -> tensor<1024x1024xf32>\l%2 = tensor.empty() : tensor<512x1024xf32>\l%3 = linalg.fill ins(%cst : f32) outs(%2 : tensor<512x1024xf32>) -> tensor<512x1024xf32>\l%4 = linalg.matmul[parallel, parallel, reduction] (%0, %1) -> (%3)\lflow.dispatch.tensor.store %4, %arg2\ltensor<512x1024xf32>"];
    v2056 [shape = ellipse, label = "%15 = flow.tensor.reshape\ntensor<512x16x64xf32>"];
    v2057 [shape = box, label = "%16 = flow.dispatch[]\n@forward_dispatch_9::@forward_dispatch_9_generic_16x512x64x512_f32(%13, %15)\n%0 = flow.dispatch.tensor.load %arg0 -> tensor<16x512x512xf32>\l%1 = flow.dispatch.tensor.load %arg1 -> tensor<512x16x64xf32>\l%2 = tensor.empty() : tensor<16x512x64xf32>\l%3 = linalg.fill ins(%cst : f32) outs(%2 : tensor<16x512x64xf32>) -> tensor<16x512x64xf32>\l%4 = linalg.generic[parallel, parallel, parallel, reduction] (%0, %1) -> (%3)\l        %5 = arith.mulf %in, %in_0 : f32\l        %6 = arith.addf %out, %5 : f32\l        linalg.yield %6 : f32\lflow.dispatch.tensor.store %4, %arg2\ltensor<16x512x64xf32>"];
    v2058 [shape = box, label = "%17 = flow.dispatch[]\n@forward_dispatch_10::@forward_dispatch_10_generic_512x16x64_f32(%16)\n%0 = flow.dispatch.tensor.load %arg0 -> tensor<16x512x64xf32>\l%1 = tensor.empty() : tensor<512x16x64xf32>\l%2 = linalg.generic[parallel, parallel, parallel] (%0) -> (%1)\l        linalg.yield %in : f32\lflow.dispatch.tensor.store %2, %arg1\ltensor<512x16x64xf32>"];
    v2059 [shape = ellipse, label = "%18 = flow.tensor.reshape\ntensor<512x1024xf32>"];
    v2060 [shape = box, label = "%19 = flow.dispatch[]\n@forward_dispatch_11::@forward_dispatch_11_matmul_512x1024x1024_f32(%18, %cst_503, %3)\n%0 = flow.dispatch.tensor.load %arg0 -> tensor<512x1024xf32>\l%1 = flow.dispatch.tensor.load %arg1 -> tensor<1024x1024xf32>\l%2 = flow.dispatch.tensor.load %arg2 -> tensor<512x1024xf32>\l%3 = tensor.empty() : tensor<512x1024xf32>\l%4 = linalg.fill ins(%cst : f32) outs(%3 : tensor<512x1024xf32>) -> tensor<512x1024xf32>\l%5 = linalg.matmul[parallel, parallel, reduction] (%0, %1) -> (%4)\l%6 = linalg.generic[parallel, parallel] (%2, %5) -> (%3)\l        %7 = arith.addf %in, %in_0 : f32\l        linalg.yield %7 : f32\lflow.dispatch.tensor.store %6, %arg3\ltensor<512x1024xf32>"];
    v2061 [shape = box, label = "%20 = flow.dispatch[]\n@forward_dispatch_2::@forward_dispatch_2_generic_512x1024_f32(%19, %cst_496)\n%0 = flow.dispatch.tensor.load %arg0 -> tensor<512x1024xf32>\l%1 = flow.dispatch.tensor.load %arg1 -> tensor<1024xf32>\l%2 = tensor.empty() : tensor<512x1024xf32>\l%3 = tensor.empty() : tensor<512xf32>\l%4 = linalg.fill ins(%cst : f32) outs(%3 : tensor<512xf32>) -> tensor<512xf32>\l%5 = linalg.generic[parallel, reduction] (%0) -> (%4)\l        %7 = arith.mulf %in, %in : f32\l        %8 = arith.addf %out, %7 : f32\l        linalg.yield %8 : f32\l%6 = linalg.generic[parallel, parallel] (%1, %0, %5) -> (%2)\l        %7 = arith.divf %in_3, %cst_0 : f32\l        %8 = arith.addf %7, %cst_1 : f32\l        %9 = math.rsqrt %8 : f32\l        %10 = arith.mulf %in_2, %9 : f32\l        %11 = arith.mulf %in, %10 : f32\l        linalg.yield %11 : f32\lflow.dispatch.tensor.store %6, %arg2\ltensor<512x1024xf32>"];
    v2062 [shape = box, label = "%21 = flow.dispatch[]\n@forward_dispatch_4::@forward_dispatch_4_matmul_512x1024x1024_f32(%20, %cst_498)\n%0 = flow.dispatch.tensor.load %arg0 -> tensor<512x1024xf32>\l%1 = flow.dispatch.tensor.load %arg1 -> tensor<1024x1024xf32>\l%2 = tensor.empty() : tensor<512x1024xf32>\l%3 = linalg.fill ins(%cst : f32) outs(%2 : tensor<512x1024xf32>) -> tensor<512x1024xf32>\l%4 = linalg.matmul[parallel, parallel, reduction] (%0, %1) -> (%3)\lflow.dispatch.tensor.store %4, %arg2\ltensor<512x1024xf32>"];
    v2063 [shape = ellipse, label = "%22 = flow.tensor.reshape\ntensor<512x16x64xf32>"];
    v2064 [shape = box, label = "%23 = flow.dispatch[]\n@forward_dispatch_2::@forward_dispatch_2_generic_512x1024_f32(%5, %cst_192)\n%0 = flow.dispatch.tensor.load %arg0 -> tensor<512x1024xf32>\l%1 = flow.dispatch.tensor.load %arg1 -> tensor<1024xf32>\l%2 = tensor.empty() : tensor<512x1024xf32>\l%3 = tensor.empty() : tensor<512xf32>\l%4 = linalg.fill ins(%cst : f32) outs(%3 : tensor<512xf32>) -> tensor<512xf32>\l%5 = linalg.generic[parallel, reduction] (%0) -> (%4)\l        %7 = arith.mulf %in, %in : f32\l        %8 = arith.addf %out, %7 : f32\l        linalg.yield %8 : f32\l%6 = linalg.generic[parallel, parallel] (%1, %0, %5) -> (%2)\l        %7 = arith.divf %in_3, %cst_0 : f32\l        %8 = arith.addf %7, %cst_1 : f32\l        %9 = math.rsqrt %8 : f32\l        %10 = arith.mulf %in_2, %9 : f32\l        %11 = arith.mulf %in, %10 : f32\l        linalg.yield %11 : f32\lflow.dispatch.tensor.store %6, %arg2\ltensor<512x1024xf32>"];
    v2065 [shape = box, label = "%24 = flow.dispatch[]\n@forward_dispatch_15::@forward_dispatch_15_generic_512x512x16_i32xf32(%cst_191, %cst_508)\n%0 = flow.dispatch.tensor.load %arg0 -> tensor<32x16xf32>\l%1 = flow.dispatch.tensor.load %arg1 -> tensor<512x512xi32>\l%2 = tensor.empty() : tensor<512x512x16xf32>\l%3 = linalg.generic[parallel, parallel, parallel] (%1) -> (%2)\l        %4 = arith.index_cast %in : i32 to index\l        %5 = linalg.index 2 : index\l        %extracted = tensor.extract %0[%4, %5] : tensor<32x16xf32>\l        linalg.yield %extracted : f32\lflow.dispatch.tensor.store %3, %arg2\ltensor<512x512x16xf32>"];
    v2066 [shape = box, label = "%25 = flow.dispatch[]\n@forward_dispatch_4::@forward_dispatch_4_matmul_512x1024x1024_f32(%23, %cst_190)\n%0 = flow.dispatch.tensor.load %arg0 -> tensor<512x1024xf32>\l%1 = flow.dispatch.tensor.load %arg1 -> tensor<1024x1024xf32>\l%2 = tensor.empty() : tensor<512x1024xf32>\l%3 = linalg.fill ins(%cst : f32) outs(%2 : tensor<512x1024xf32>) -> tensor<512x1024xf32>\l%4 = linalg.matmul[parallel, parallel, reduction] (%0, %1) -> (%3)\lflow.dispatch.tensor.store %4, %arg2\ltensor<512x1024xf32>"];
    v2067 [shape = ellipse, label = "%26 = flow.tensor.reshape\ntensor<512x16x64xf32>"];
    v2068 [shape = box, label = "%27 = flow.dispatch[]\n@forward_dispatch_4::@forward_dispatch_4_matmul_512x1024x1024_f32(%23, %cst_188)\n%0 = flow.dispatch.tensor.load %arg0 -> tensor<512x1024xf32>\l%1 = flow.dispatch.tensor.load %arg1 -> tensor<1024x1024xf32>\l%2 = tensor.empty() : tensor<512x1024xf32>\l%3 = linalg.fill ins(%cst : f32) outs(%2 : tensor<512x1024xf32>) -> tensor<512x1024xf32>\l%4 = linalg.matmul[parallel, parallel, reduction] (%0, %1) -> (%3)\lflow.dispatch.tensor.store %4, %arg2\ltensor<512x1024xf32>"];
    v2069 [shape = ellipse, label = "%28 = flow.tensor.reshape\ntensor<512x16x64xf32>"];
    v2070 [shape = box, label = "%29 = flow.dispatch[]\n@forward_dispatch_18::@forward_dispatch_18_generic_16x512x512x64_f32(%28, %26, %24)\n%0 = flow.dispatch.tensor.load %arg0 -> tensor<512x16x64xf32>\l%1 = flow.dispatch.tensor.load %arg1 -> tensor<512x16x64xf32>\l%2 = flow.dispatch.tensor.load %arg2 -> tensor<512x512x16xf32>\l%3 = tensor.empty() : tensor<16x512x512xf32>\l%4 = linalg.fill ins(%cst : f32) outs(%3 : tensor<16x512x512xf32>) -> tensor<16x512x512xf32>\l%5 = linalg.generic[parallel, parallel, parallel, reduction] (%0, %1) -> (%4)\l        %7 = arith.mulf %in, %in_1 : f32\l        %8 = arith.addf %out, %7 : f32\l        linalg.yield %8 : f32\l%6 = linalg.generic[parallel, parallel, parallel] (%5, %2) -> (%3)\l        %7 = arith.addf %in, %in_1 : f32\l        %8 = arith.addf %7, %cst_0 : f32\l        linalg.yield %8 : f32\lflow.dispatch.tensor.store %6, %arg3\ltensor<16x512x512xf32>"];
    v2071 [shape = box, label = "%30 = flow.dispatch[]\n@forward_dispatch_7::@forward_dispatch_7_softmax_16x512x512xf32(%29)\n%0 = flow.dispatch.tensor.load %arg0 -> tensor<16x512x512xf32>\l%1 = tensor.empty() : tensor<16x512x512xf32>\l%2 = iree_linalg_ext.softmax dimension(2) ins(%0 : tensor<16x512x512xf32>) outs(%1 : tensor<16x512x512xf32>) -> tensor<16x512x512xf32>\lflow.dispatch.tensor.store %2, %arg1\ltensor<16x512x512xf32>"];
    v2072 [shape = box, label = "%31 = flow.dispatch[]\n@forward_dispatch_4::@forward_dispatch_4_matmul_512x1024x1024_f32(%23, %cst_187)\n%0 = flow.dispatch.tensor.load %arg0 -> tensor<512x1024xf32>\l%1 = flow.dispatch.tensor.load %arg1 -> tensor<1024x1024xf32>\l%2 = tensor.empty() : tensor<512x1024xf32>\l%3 = linalg.fill ins(%cst : f32) outs(%2 : tensor<512x1024xf32>) -> tensor<512x1024xf32>\l%4 = linalg.matmul[parallel, parallel, reduction] (%0, %1) -> (%3)\lflow.dispatch.tensor.store %4, %arg2\ltensor<512x1024xf32>"];
    v2073 [shape = ellipse, label = "%32 = flow.tensor.reshape\ntensor<512x16x64xf32>"];
    v2074 [shape = box, label = "%33 = flow.dispatch[]\n@forward_dispatch_9::@forward_dispatch_9_generic_16x512x64x512_f32(%30, %32)\n%0 = flow.dispatch.tensor.load %arg0 -> tensor<16x512x512xf32>\l%1 = flow.dispatch.tensor.load %arg1 -> tensor<512x16x64xf32>\l%2 = tensor.empty() : tensor<16x512x64xf32>\l%3 = linalg.fill ins(%cst : f32) outs(%2 : tensor<16x512x64xf32>) -> tensor<16x512x64xf32>\l%4 = linalg.generic[parallel, parallel, parallel, reduction] (%0, %1) -> (%3)\l        %5 = arith.mulf %in, %in_0 : f32\l        %6 = arith.addf %out, %5 : f32\l        linalg.yield %6 : f32\lflow.dispatch.tensor.store %4, %arg2\ltensor<16x512x64xf32>"];
    v2075 [shape = box, label = "%34 = flow.dispatch[]\n@forward_dispatch_10::@forward_dispatch_10_generic_512x16x64_f32(%33)\n%0 = flow.dispatch.tensor.load %arg0 -> tensor<16x512x64xf32>\l%1 = tensor.empty() : tensor<512x16x64xf32>\l%2 = linalg.generic[parallel, parallel, parallel] (%0) -> (%1)\l        linalg.yield %in : f32\lflow.dispatch.tensor.store %2, %arg1\ltensor<512x16x64xf32>"];
    v2076 [shape = ellipse, label = "%35 = flow.tensor.reshape\ntensor<512x1024xf32>"];
    v2077 [shape = box, label = "%36 = flow.dispatch[]\n@forward_dispatch_11::@forward_dispatch_11_matmul_512x1024x1024_f32(%35, %cst_189, %5)\n%0 = flow.dispatch.tensor.load %arg0 -> tensor<512x1024xf32>\l%1 = flow.dispatch.tensor.load %arg1 -> tensor<1024x1024xf32>\l%2 = flow.dispatch.tensor.load %arg2 -> tensor<512x1024xf32>\l%3 = tensor.empty() : tensor<512x1024xf32>\l%4 = linalg.fill ins(%cst : f32) outs(%3 : tensor<512x1024xf32>) -> tensor<512x1024xf32>\l%5 = linalg.matmul[parallel, parallel, reduction] (%0, %1) -> (%4)\l%6 = linalg.generic[parallel, parallel] (%2, %5) -> (%3)\l        %7 = arith.addf %in, %in_0 : f32\l        linalg.yield %7 : f32\lflow.dispatch.tensor.store %6, %arg3\ltensor<512x1024xf32>"];
    v2078 [shape = box, label = "%37 = flow.dispatch[]\n@forward_dispatch_2::@forward_dispatch_2_generic_512x1024_f32(%36, %cst_184)\n%0 = flow.dispatch.tensor.load %arg0 -> tensor<512x1024xf32>\l%1 = flow.dispatch.tensor.load %arg1 -> tensor<1024xf32>\l%2 = tensor.empty() : tensor<512x1024xf32>\l%3 = tensor.empty() : tensor<512xf32>\l%4 = linalg.fill ins(%cst : f32) outs(%3 : tensor<512xf32>) -> tensor<512xf32>\l%5 = linalg.generic[parallel, reduction] (%0) -> (%4)\l        %7 = arith.mulf %in, %in : f32\l        %8 = arith.addf %out, %7 : f32\l        linalg.yield %8 : f32\l%6 = linalg.generic[parallel, parallel] (%1, %0, %5) -> (%2)\l        %7 = arith.divf %in_3, %cst_0 : f32\l        %8 = arith.addf %7, %cst_1 : f32\l        %9 = math.rsqrt %8 : f32\l        %10 = arith.mulf %in_2, %9 : f32\l        %11 = arith.mulf %in, %10 : f32\l        linalg.yield %11 : f32\lflow.dispatch.tensor.store %6, %arg2\ltensor<512x1024xf32>"];
    v2079 [shape = box, label = "%38 = flow.dispatch[]\n@forward_dispatch_25::@forward_dispatch_25_matmul_512x4096x1024_f32(%37, %cst_186)\n%0 = flow.dispatch.tensor.load %arg0 -> tensor<512x1024xf32>\l%1 = flow.dispatch.tensor.load %arg1 -> tensor<1024x4096xf32>\l%2 = tensor.empty() : tensor<512x4096xf32>\l%3 = linalg.fill ins(%cst : f32) outs(%2 : tensor<512x4096xf32>) -> tensor<512x4096xf32>\l%4 = linalg.matmul[parallel, parallel, reduction] (%0, %1) -> (%3)\l%5 = linalg.generic[parallel, parallel] (%4) -> (%2)\l        %6 = arith.maxf %in, %cst : f32\l        linalg.yield %6 : f32\lflow.dispatch.tensor.store %5, %arg2\ltensor<512x4096xf32>"];
    v2080 [shape = box, label = "%39 = flow.dispatch[]\n@forward_dispatch_26::@forward_dispatch_26_matmul_512x1024x4096_f32(%38, %cst_185, %36)\n%0 = flow.dispatch.tensor.load %arg0 -> tensor<512x4096xf32>\l%1 = flow.dispatch.tensor.load %arg1 -> tensor<4096x1024xf32>\l%2 = flow.dispatch.tensor.load %arg2 -> tensor<512x1024xf32>\l%3 = tensor.empty() : tensor<512x1024xf32>\l%4 = linalg.fill ins(%cst : f32) outs(%3 : tensor<512x1024xf32>) -> tensor<512x1024xf32>\l%5 = linalg.matmul[parallel, parallel, reduction] (%0, %1) -> (%4)\l%6 = linalg.generic[parallel, parallel] (%2, %5) -> (%3)\l        %7 = arith.addf %in, %in_0 : f32\l        linalg.yield %7 : f32\lflow.dispatch.tensor.store %6, %arg3\ltensor<512x1024xf32>"];
    v2081 [shape = box, label = "%40 = flow.dispatch[]\n@forward_dispatch_2::@forward_dispatch_2_generic_512x1024_f32(%39, %cst_103)\n%0 = flow.dispatch.tensor.load %arg0 -> tensor<512x1024xf32>\l%1 = flow.dispatch.tensor.load %arg1 -> tensor<1024xf32>\l%2 = tensor.empty() : tensor<512x1024xf32>\l%3 = tensor.empty() : tensor<512xf32>\l%4 = linalg.fill ins(%cst : f32) outs(%3 : tensor<512xf32>) -> tensor<512xf32>\l%5 = linalg.generic[parallel, reduction] (%0) -> (%4)\l        %7 = arith.mulf %in, %in : f32\l        %8 = arith.addf %out, %7 : f32\l        linalg.yield %8 : f32\l%6 = linalg.generic[parallel, parallel] (%1, %0, %5) -> (%2)\l        %7 = arith.divf %in_3, %cst_0 : f32\l        %8 = arith.addf %7, %cst_1 : f32\l        %9 = math.rsqrt %8 : f32\l        %10 = arith.mulf %in_2, %9 : f32\l        %11 = arith.mulf %in, %10 : f32\l        linalg.yield %11 : f32\lflow.dispatch.tensor.store %6, %arg2\ltensor<512x1024xf32>"];
    v2082 [shape = box, label = "%41 = flow.dispatch[]\n@forward_dispatch_4::@forward_dispatch_4_matmul_512x1024x1024_f32(%40, %cst_102)\n%0 = flow.dispatch.tensor.load %arg0 -> tensor<512x1024xf32>\l%1 = flow.dispatch.tensor.load %arg1 -> tensor<1024x1024xf32>\l%2 = tensor.empty() : tensor<512x1024xf32>\l%3 = linalg.fill ins(%cst : f32) outs(%2 : tensor<512x1024xf32>) -> tensor<512x1024xf32>\l%4 = linalg.matmul[parallel, parallel, reduction] (%0, %1) -> (%3)\lflow.dispatch.tensor.store %4, %arg2\ltensor<512x1024xf32>"];
    v2083 [shape = ellipse, label = "%42 = flow.tensor.reshape\ntensor<512x16x64xf32>"];
    v2084 [shape = box, label = "%43 = flow.dispatch[]\n@forward_dispatch_4::@forward_dispatch_4_matmul_512x1024x1024_f32(%40, %cst_100)\n%0 = flow.dispatch.tensor.load %arg0 -> tensor<512x1024xf32>\l%1 = flow.dispatch.tensor.load %arg1 -> tensor<1024x1024xf32>\l%2 = tensor.empty() : tensor<512x1024xf32>\l%3 = linalg.fill ins(%cst : f32) outs(%2 : tensor<512x1024xf32>) -> tensor<512x1024xf32>\l%4 = linalg.matmul[parallel, parallel, reduction] (%0, %1) -> (%3)\lflow.dispatch.tensor.store %4, %arg2\ltensor<512x1024xf32>"];
    v2085 [shape = ellipse, label = "%44 = flow.tensor.reshape\ntensor<512x16x64xf32>"];
    v2086 [shape = box, label = "%45 = flow.dispatch[]\n@forward_dispatch_18::@forward_dispatch_18_generic_16x512x512x64_f32(%44, %42, %24)\n%0 = flow.dispatch.tensor.load %arg0 -> tensor<512x16x64xf32>\l%1 = flow.dispatch.tensor.load %arg1 -> tensor<512x16x64xf32>\l%2 = flow.dispatch.tensor.load %arg2 -> tensor<512x512x16xf32>\l%3 = tensor.empty() : tensor<16x512x512xf32>\l%4 = linalg.fill ins(%cst : f32) outs(%3 : tensor<16x512x512xf32>) -> tensor<16x512x512xf32>\l%5 = linalg.generic[parallel, parallel, parallel, reduction] (%0, %1) -> (%4)\l        %7 = arith.mulf %in, %in_1 : f32\l        %8 = arith.addf %out, %7 : f32\l        linalg.yield %8 : f32\l%6 = linalg.generic[parallel, parallel, parallel] (%5, %2) -> (%3)\l        %7 = arith.addf %in, %in_1 : f32\l        %8 = arith.addf %7, %cst_0 : f32\l        linalg.yield %8 : f32\lflow.dispatch.tensor.store %6, %arg3\ltensor<16x512x512xf32>"];
    v2087 [shape = box, label = "%46 = flow.dispatch[]\n@forward_dispatch_7::@forward_dispatch_7_softmax_16x512x512xf32(%45)\n%0 = flow.dispatch.tensor.load %arg0 -> tensor<16x512x512xf32>\l%1 = tensor.empty() : tensor<16x512x512xf32>\l%2 = iree_linalg_ext.softmax dimension(2) ins(%0 : tensor<16x512x512xf32>) outs(%1 : tensor<16x512x512xf32>) -> tensor<16x512x512xf32>\lflow.dispatch.tensor.store %2, %arg1\ltensor<16x512x512xf32>"];
    v2088 [shape = box, label = "%47 = flow.dispatch[]\n@forward_dispatch_4::@forward_dispatch_4_matmul_512x1024x1024_f32(%40, %cst_99)\n%0 = flow.dispatch.tensor.load %arg0 -> tensor<512x1024xf32>\l%1 = flow.dispatch.tensor.load %arg1 -> tensor<1024x1024xf32>\l%2 = tensor.empty() : tensor<512x1024xf32>\l%3 = linalg.fill ins(%cst : f32) outs(%2 : tensor<512x1024xf32>) -> tensor<512x1024xf32>\l%4 = linalg.matmul[parallel, parallel, reduction] (%0, %1) -> (%3)\lflow.dispatch.tensor.store %4, %arg2\ltensor<512x1024xf32>"];
    v2089 [shape = ellipse, label = "%48 = flow.tensor.reshape\ntensor<512x16x64xf32>"];
    v2090 [shape = box, label = "%49 = flow.dispatch[]\n@forward_dispatch_9::@forward_dispatch_9_generic_16x512x64x512_f32(%46, %48)\n%0 = flow.dispatch.tensor.load %arg0 -> tensor<16x512x512xf32>\l%1 = flow.dispatch.tensor.load %arg1 -> tensor<512x16x64xf32>\l%2 = tensor.empty() : tensor<16x512x64xf32>\l%3 = linalg.fill ins(%cst : f32) outs(%2 : tensor<16x512x64xf32>) -> tensor<16x512x64xf32>\l%4 = linalg.generic[parallel, parallel, parallel, reduction] (%0, %1) -> (%3)\l        %5 = arith.mulf %in, %in_0 : f32\l        %6 = arith.addf %out, %5 : f32\l        linalg.yield %6 : f32\lflow.dispatch.tensor.store %4, %arg2\ltensor<16x512x64xf32>"];
    v2091 [shape = box, label = "%50 = flow.dispatch[]\n@forward_dispatch_10::@forward_dispatch_10_generic_512x16x64_f32(%49)\n%0 = flow.dispatch.tensor.load %arg0 -> tensor<16x512x64xf32>\l%1 = tensor.empty() : tensor<512x16x64xf32>\l%2 = linalg.generic[parallel, parallel, parallel] (%0) -> (%1)\l        linalg.yield %in : f32\lflow.dispatch.tensor.store %2, %arg1\ltensor<512x16x64xf32>"];
    v2092 [shape = ellipse, label = "%51 = flow.tensor.reshape\ntensor<512x1024xf32>"];
    v2093 [shape = box, label = "%52 = flow.dispatch[]\n@forward_dispatch_11::@forward_dispatch_11_matmul_512x1024x1024_f32(%51, %cst_101, %39)\n%0 = flow.dispatch.tensor.load %arg0 -> tensor<512x1024xf32>\l%1 = flow.dispatch.tensor.load %arg1 -> tensor<1024x1024xf32>\l%2 = flow.dispatch.tensor.load %arg2 -> tensor<512x1024xf32>\l%3 = tensor.empty() : tensor<512x1024xf32>\l%4 = linalg.fill ins(%cst : f32) outs(%3 : tensor<512x1024xf32>) -> tensor<512x1024xf32>\l%5 = linalg.matmul[parallel, parallel, reduction] (%0, %1) -> (%4)\l%6 = linalg.generic[parallel, parallel] (%2, %5) -> (%3)\l        %7 = arith.addf %in, %in_0 : f32\l        linalg.yield %7 : f32\lflow.dispatch.tensor.store %6, %arg3\ltensor<512x1024xf32>"];
    v2094 [shape = box, label = "%53 = flow.dispatch[]\n@forward_dispatch_2::@forward_dispatch_2_generic_512x1024_f32(%52, %cst_96)\n%0 = flow.dispatch.tensor.load %arg0 -> tensor<512x1024xf32>\l%1 = flow.dispatch.tensor.load %arg1 -> tensor<1024xf32>\l%2 = tensor.empty() : tensor<512x1024xf32>\l%3 = tensor.empty() : tensor<512xf32>\l%4 = linalg.fill ins(%cst : f32) outs(%3 : tensor<512xf32>) -> tensor<512xf32>\l%5 = linalg.generic[parallel, reduction] (%0) -> (%4)\l        %7 = arith.mulf %in, %in : f32\l        %8 = arith.addf %out, %7 : f32\l        linalg.yield %8 : f32\l%6 = linalg.generic[parallel, parallel] (%1, %0, %5) -> (%2)\l        %7 = arith.divf %in_3, %cst_0 : f32\l        %8 = arith.addf %7, %cst_1 : f32\l        %9 = math.rsqrt %8 : f32\l        %10 = arith.mulf %in_2, %9 : f32\l        %11 = arith.mulf %in, %10 : f32\l        linalg.yield %11 : f32\lflow.dispatch.tensor.store %6, %arg2\ltensor<512x1024xf32>"];
    v2095 [shape = box, label = "%54 = flow.dispatch[]\n@forward_dispatch_25::@forward_dispatch_25_matmul_512x4096x1024_f32(%53, %cst_98)\n%0 = flow.dispatch.tensor.load %arg0 -> tensor<512x1024xf32>\l%1 = flow.dispatch.tensor.load %arg1 -> tensor<1024x4096xf32>\l%2 = tensor.empty() : tensor<512x4096xf32>\l%3 = linalg.fill ins(%cst : f32) outs(%2 : tensor<512x4096xf32>) -> tensor<512x4096xf32>\l%4 = linalg.matmul[parallel, parallel, reduction] (%0, %1) -> (%3)\l%5 = linalg.generic[parallel, parallel] (%4) -> (%2)\l        %6 = arith.maxf %in, %cst : f32\l        linalg.yield %6 : f32\lflow.dispatch.tensor.store %5, %arg2\ltensor<512x4096xf32>"];
    v2096 [shape = box, label = "%55 = flow.dispatch[]\n@forward_dispatch_26::@forward_dispatch_26_matmul_512x1024x4096_f32(%54, %cst_97, %52)\n%0 = flow.dispatch.tensor.load %arg0 -> tensor<512x4096xf32>\l%1 = flow.dispatch.tensor.load %arg1 -> tensor<4096x1024xf32>\l%2 = flow.dispatch.tensor.load %arg2 -> tensor<512x1024xf32>\l%3 = tensor.empty() : tensor<512x1024xf32>\l%4 = linalg.fill ins(%cst : f32) outs(%3 : tensor<512x1024xf32>) -> tensor<512x1024xf32>\l%5 = linalg.matmul[parallel, parallel, reduction] (%0, %1) -> (%4)\l%6 = linalg.generic[parallel, parallel] (%2, %5) -> (%3)\l        %7 = arith.addf %in, %in_0 : f32\l        linalg.yield %7 : f32\lflow.dispatch.tensor.store %6, %arg3\ltensor<512x1024xf32>"];
    v2097 [shape = box, label = "%56 = flow.dispatch[]\n@forward_dispatch_2::@forward_dispatch_2_generic_512x1024_f32(%55, %cst_63)\n%0 = flow.dispatch.tensor.load %arg0 -> tensor<512x1024xf32>\l%1 = flow.dispatch.tensor.load %arg1 -> tensor<1024xf32>\l%2 = tensor.empty() : tensor<512x1024xf32>\l%3 = tensor.empty() : tensor<512xf32>\l%4 = linalg.fill ins(%cst : f32) outs(%3 : tensor<512xf32>) -> tensor<512xf32>\l%5 = linalg.generic[parallel, reduction] (%0) -> (%4)\l        %7 = arith.mulf %in, %in : f32\l        %8 = arith.addf %out, %7 : f32\l        linalg.yield %8 : f32\l%6 = linalg.generic[parallel, parallel] (%1, %0, %5) -> (%2)\l        %7 = arith.divf %in_3, %cst_0 : f32\l        %8 = arith.addf %7, %cst_1 : f32\l        %9 = math.rsqrt %8 : f32\l        %10 = arith.mulf %in_2, %9 : f32\l        %11 = arith.mulf %in, %10 : f32\l        linalg.yield %11 : f32\lflow.dispatch.tensor.store %6, %arg2\ltensor<512x1024xf32>"];
    v2098 [shape = box, label = "%57 = flow.dispatch[]\n@forward_dispatch_4::@forward_dispatch_4_matmul_512x1024x1024_f32(%56, %cst_62)\n%0 = flow.dispatch.tensor.load %arg0 -> tensor<512x1024xf32>\l%1 = flow.dispatch.tensor.load %arg1 -> tensor<1024x1024xf32>\l%2 = tensor.empty() : tensor<512x1024xf32>\l%3 = linalg.fill ins(%cst : f32) outs(%2 : tensor<512x1024xf32>) -> tensor<512x1024xf32>\l%4 = linalg.matmul[parallel, parallel, reduction] (%0, %1) -> (%3)\lflow.dispatch.tensor.store %4, %arg2\ltensor<512x1024xf32>"];
    v2099 [shape = ellipse, label = "%58 = flow.tensor.reshape\ntensor<512x16x64xf32>"];
    v2100 [shape = box, label = "%59 = flow.dispatch[]\n@forward_dispatch_4::@forward_dispatch_4_matmul_512x1024x1024_f32(%56, %cst_60)\n%0 = flow.dispatch.tensor.load %arg0 -> tensor<512x1024xf32>\l%1 = flow.dispatch.tensor.load %arg1 -> tensor<1024x1024xf32>\l%2 = tensor.empty() : tensor<512x1024xf32>\l%3 = linalg.fill ins(%cst : f32) outs(%2 : tensor<512x1024xf32>) -> tensor<512x1024xf32>\l%4 = linalg.matmul[parallel, parallel, reduction] (%0, %1) -> (%3)\lflow.dispatch.tensor.store %4, %arg2\ltensor<512x1024xf32>"];
    v2101 [shape = ellipse, label = "%60 = flow.tensor.reshape\ntensor<512x16x64xf32>"];
    v2102 [shape = box, label = "%61 = flow.dispatch[]\n@forward_dispatch_18::@forward_dispatch_18_generic_16x512x512x64_f32(%60, %58, %24)\n%0 = flow.dispatch.tensor.load %arg0 -> tensor<512x16x64xf32>\l%1 = flow.dispatch.tensor.load %arg1 -> tensor<512x16x64xf32>\l%2 = flow.dispatch.tensor.load %arg2 -> tensor<512x512x16xf32>\l%3 = tensor.empty() : tensor<16x512x512xf32>\l%4 = linalg.fill ins(%cst : f32) outs(%3 : tensor<16x512x512xf32>) -> tensor<16x512x512xf32>\l%5 = linalg.generic[parallel, parallel, parallel, reduction] (%0, %1) -> (%4)\l        %7 = arith.mulf %in, %in_1 : f32\l        %8 = arith.addf %out, %7 : f32\l        linalg.yield %8 : f32\l%6 = linalg.generic[parallel, parallel, parallel] (%5, %2) -> (%3)\l        %7 = arith.addf %in, %in_1 : f32\l        %8 = arith.addf %7, %cst_0 : f32\l        linalg.yield %8 : f32\lflow.dispatch.tensor.store %6, %arg3\ltensor<16x512x512xf32>"];
    v2103 [shape = box, label = "%62 = flow.dispatch[]\n@forward_dispatch_7::@forward_dispatch_7_softmax_16x512x512xf32(%61)\n%0 = flow.dispatch.tensor.load %arg0 -> tensor<16x512x512xf32>\l%1 = tensor.empty() : tensor<16x512x512xf32>\l%2 = iree_linalg_ext.softmax dimension(2) ins(%0 : tensor<16x512x512xf32>) outs(%1 : tensor<16x512x512xf32>) -> tensor<16x512x512xf32>\lflow.dispatch.tensor.store %2, %arg1\ltensor<16x512x512xf32>"];
    v2104 [shape = box, label = "%63 = flow.dispatch[]\n@forward_dispatch_4::@forward_dispatch_4_matmul_512x1024x1024_f32(%56, %cst_59)\n%0 = flow.dispatch.tensor.load %arg0 -> tensor<512x1024xf32>\l%1 = flow.dispatch.tensor.load %arg1 -> tensor<1024x1024xf32>\l%2 = tensor.empty() : tensor<512x1024xf32>\l%3 = linalg.fill ins(%cst : f32) outs(%2 : tensor<512x1024xf32>) -> tensor<512x1024xf32>\l%4 = linalg.matmul[parallel, parallel, reduction] (%0, %1) -> (%3)\lflow.dispatch.tensor.store %4, %arg2\ltensor<512x1024xf32>"];
    v2105 [shape = ellipse, label = "%64 = flow.tensor.reshape\ntensor<512x16x64xf32>"];
    v2106 [shape = box, label = "%65 = flow.dispatch[]\n@forward_dispatch_9::@forward_dispatch_9_generic_16x512x64x512_f32(%62, %64)\n%0 = flow.dispatch.tensor.load %arg0 -> tensor<16x512x512xf32>\l%1 = flow.dispatch.tensor.load %arg1 -> tensor<512x16x64xf32>\l%2 = tensor.empty() : tensor<16x512x64xf32>\l%3 = linalg.fill ins(%cst : f32) outs(%2 : tensor<16x512x64xf32>) -> tensor<16x512x64xf32>\l%4 = linalg.generic[parallel, parallel, parallel, reduction] (%0, %1) -> (%3)\l        %5 = arith.mulf %in, %in_0 : f32\l        %6 = arith.addf %out, %5 : f32\l        linalg.yield %6 : f32\lflow.dispatch.tensor.store %4, %arg2\ltensor<16x512x64xf32>"];
    v2107 [shape = box, label = "%66 = flow.dispatch[]\n@forward_dispatch_10::@forward_dispatch_10_generic_512x16x64_f32(%65)\n%0 = flow.dispatch.tensor.load %arg0 -> tensor<16x512x64xf32>\l%1 = tensor.empty() : tensor<512x16x64xf32>\l%2 = linalg.generic[parallel, parallel, parallel] (%0) -> (%1)\l        linalg.yield %in : f32\lflow.dispatch.tensor.store %2, %arg1\ltensor<512x16x64xf32>"];
    v2108 [shape = ellipse, label = "%67 = flow.tensor.reshape\ntensor<512x1024xf32>"];
    v2109 [shape = box, label = "%68 = flow.dispatch[]\n@forward_dispatch_11::@forward_dispatch_11_matmul_512x1024x1024_f32(%67, %cst_61, %55)\n%0 = flow.dispatch.tensor.load %arg0 -> tensor<512x1024xf32>\l%1 = flow.dispatch.tensor.load %arg1 -> tensor<1024x1024xf32>\l%2 = flow.dispatch.tensor.load %arg2 -> tensor<512x1024xf32>\l%3 = tensor.empty() : tensor<512x1024xf32>\l%4 = linalg.fill ins(%cst : f32) outs(%3 : tensor<512x1024xf32>) -> tensor<512x1024xf32>\l%5 = linalg.matmul[parallel, parallel, reduction] (%0, %1) -> (%4)\l%6 = linalg.generic[parallel, parallel] (%2, %5) -> (%3)\l        %7 = arith.addf %in, %in_0 : f32\l        linalg.yield %7 : f32\lflow.dispatch.tensor.store %6, %arg3\ltensor<512x1024xf32>"];
    v2110 [shape = box, label = "%69 = flow.dispatch[]\n@forward_dispatch_2::@forward_dispatch_2_generic_512x1024_f32(%68, %cst_56)\n%0 = flow.dispatch.tensor.load %arg0 -> tensor<512x1024xf32>\l%1 = flow.dispatch.tensor.load %arg1 -> tensor<1024xf32>\l%2 = tensor.empty() : tensor<512x1024xf32>\l%3 = tensor.empty() : tensor<512xf32>\l%4 = linalg.fill ins(%cst : f32) outs(%3 : tensor<512xf32>) -> tensor<512xf32>\l%5 = linalg.generic[parallel, reduction] (%0) -> (%4)\l        %7 = arith.mulf %in, %in : f32\l        %8 = arith.addf %out, %7 : f32\l        linalg.yield %8 : f32\l%6 = linalg.generic[parallel, parallel] (%1, %0, %5) -> (%2)\l        %7 = arith.divf %in_3, %cst_0 : f32\l        %8 = arith.addf %7, %cst_1 : f32\l        %9 = math.rsqrt %8 : f32\l        %10 = arith.mulf %in_2, %9 : f32\l        %11 = arith.mulf %in, %10 : f32\l        linalg.yield %11 : f32\lflow.dispatch.tensor.store %6, %arg2\ltensor<512x1024xf32>"];
    v2111 [shape = box, label = "%70 = flow.dispatch[]\n@forward_dispatch_25::@forward_dispatch_25_matmul_512x4096x1024_f32(%69, %cst_58)\n%0 = flow.dispatch.tensor.load %arg0 -> tensor<512x1024xf32>\l%1 = flow.dispatch.tensor.load %arg1 -> tensor<1024x4096xf32>\l%2 = tensor.empty() : tensor<512x4096xf32>\l%3 = linalg.fill ins(%cst : f32) outs(%2 : tensor<512x4096xf32>) -> tensor<512x4096xf32>\l%4 = linalg.matmul[parallel, parallel, reduction] (%0, %1) -> (%3)\l%5 = linalg.generic[parallel, parallel] (%4) -> (%2)\l        %6 = arith.maxf %in, %cst : f32\l        linalg.yield %6 : f32\lflow.dispatch.tensor.store %5, %arg2\ltensor<512x4096xf32>"];
    v2112 [shape = box, label = "%71 = flow.dispatch[]\n@forward_dispatch_26::@forward_dispatch_26_matmul_512x1024x4096_f32(%70, %cst_57, %68)\n%0 = flow.dispatch.tensor.load %arg0 -> tensor<512x4096xf32>\l%1 = flow.dispatch.tensor.load %arg1 -> tensor<4096x1024xf32>\l%2 = flow.dispatch.tensor.load %arg2 -> tensor<512x1024xf32>\l%3 = tensor.empty() : tensor<512x1024xf32>\l%4 = linalg.fill ins(%cst : f32) outs(%3 : tensor<512x1024xf32>) -> tensor<512x1024xf32>\l%5 = linalg.matmul[parallel, parallel, reduction] (%0, %1) -> (%4)\l%6 = linalg.generic[parallel, parallel] (%2, %5) -> (%3)\l        %7 = arith.addf %in, %in_0 : f32\l        linalg.yield %7 : f32\lflow.dispatch.tensor.store %6, %arg3\ltensor<512x1024xf32>"];
    v2113 [shape = box, label = "%72 = flow.dispatch[]\n@forward_dispatch_2::@forward_dispatch_2_generic_512x1024_f32(%71, %cst_55)\n%0 = flow.dispatch.tensor.load %arg0 -> tensor<512x1024xf32>\l%1 = flow.dispatch.tensor.load %arg1 -> tensor<1024xf32>\l%2 = tensor.empty() : tensor<512x1024xf32>\l%3 = tensor.empty() : tensor<512xf32>\l%4 = linalg.fill ins(%cst : f32) outs(%3 : tensor<512xf32>) -> tensor<512xf32>\l%5 = linalg.generic[parallel, reduction] (%0) -> (%4)\l        %7 = arith.mulf %in, %in : f32\l        %8 = arith.addf %out, %7 : f32\l        linalg.yield %8 : f32\l%6 = linalg.generic[parallel, parallel] (%1, %0, %5) -> (%2)\l        %7 = arith.divf %in_3, %cst_0 : f32\l        %8 = arith.addf %7, %cst_1 : f32\l        %9 = math.rsqrt %8 : f32\l        %10 = arith.mulf %in_2, %9 : f32\l        %11 = arith.mulf %in, %10 : f32\l        linalg.yield %11 : f32\lflow.dispatch.tensor.store %6, %arg2\ltensor<512x1024xf32>"];
    v2114 [shape = box, label = "%73 = flow.dispatch[]\n@forward_dispatch_4::@forward_dispatch_4_matmul_512x1024x1024_f32(%72, %cst_54)\n%0 = flow.dispatch.tensor.load %arg0 -> tensor<512x1024xf32>\l%1 = flow.dispatch.tensor.load %arg1 -> tensor<1024x1024xf32>\l%2 = tensor.empty() : tensor<512x1024xf32>\l%3 = linalg.fill ins(%cst : f32) outs(%2 : tensor<512x1024xf32>) -> tensor<512x1024xf32>\l%4 = linalg.matmul[parallel, parallel, reduction] (%0, %1) ->…
  v2295 -> v2298 [style = solid, label = "0"];
  v2297 -> v2298 [style = solid, label = "1"];
  v2298 -> v2299 [style = solid, label = ""];
  v2299 -> v2300 [style = solid, label = ""];
  v2300 -> v2301 [style = solid, label = "0"];
  v2288 -> v2301 [style = solid, label = "2"];
  v2301 -> v2302 [style = solid, label = "0"];
  v2302 -> v2303 [style = solid, label = "0"];
  v2303 -> v2304 [style = solid, label = "0"];
  v2301 -> v2304 [style = solid, label = "2"];
  v2304 -> v2305 [style = solid, label = "0"];
  v2305 -> v2306 [style = solid, label = "0"];
  v2306 -> v2307 [style = solid, label = ""];
  v2305 -> v2308 [style = solid, label = "0"];
  v2308 -> v2309 [style = solid, label = ""];
  v2309 -> v2310 [style = solid, label = "0"];
  v2307 -> v2310 [style = solid, label = "1"];
  v2065 -> v2310 [style = solid, label = "2"];
  v2310 -> v2311 [style = solid, label = ""];
  v2305 -> v2312 [style = solid, label = "0"];
  v2312 -> v2313 [style = solid, label = ""];
  v2311 -> v2314 [style = solid, label = "0"];
  v2313 -> v2314 [style = solid, label = "1"];
  v2314 -> v2315 [style = solid, label = ""];
  v2315 -> v2316 [style = solid, label = ""];
  v2316 -> v2317 [style = solid, label = "0"];
  v2304 -> v2317 [style = solid, label = "2"];
  v2317 -> v2318 [style = solid, label = "0"];
  v2318 -> v2319 [style = solid, label = "0"];
  v2319 -> v2320 [style = solid, label = "0"];
  v2317 -> v2320 [style = solid, label = "2"];
  v2320 -> v2321 [style = solid, label = "0"];
  v2321 -> v2322 [style = solid, label = "0"];
  v2322 -> v2323 [style = solid, label = ""];
  v2321 -> v2324 [style = solid, label = "0"];
  v2324 -> v2325 [style = solid, label = ""];
  v2325 -> v2326 [style = solid, label = "0"];
  v2323 -> v2326 [style = solid, label = "1"];
  v2065 -> v2326 [style = solid, label = "2"];
  v2326 -> v2327 [style = solid, label = ""];
  v2321 -> v2328 [style = solid, label = "0"];
  v2328 -> v2329 [style = solid, label = ""];
  v2327 -> v2330 [style = solid, label = "0"];
  v2329 -> v2330 [style = solid, label = "1"];
  v2330 -> v2331 [style = solid, label = ""];
  v2331 -> v2332 [style = solid, label = ""];
  v2332 -> v2333 [style = solid, label = "0"];
  v2320 -> v2333 [style = solid, label = "2"];
  v2333 -> v2334 [style = solid, label = "0"];
  v2334 -> v2335 [style = solid, label = "0"];
  v2335 -> v2336 [style = solid, label = "0"];
  v2333 -> v2336 [style = solid, label = "2"];
  v2336 -> v2337 [style = solid, label = "0"];
  v2337 -> v2338 [style = solid, label = "0"];
  v2338 -> v2339 [style = solid, label = ""];
  v2337 -> v2340 [style = solid, label = "0"];
  v2340 -> v2341 [style = solid, label = ""];
  v2341 -> v2342 [style = solid, label = "0"];
  v2339 -> v2342 [style = solid, label = "1"];
  v2065 -> v2342 [style = solid, label = "2"];
  v2342 -> v2343 [style = solid, label = ""];
  v2337 -> v2344 [style = solid, label = "0"];
  v2344 -> v2345 [style = solid, label = ""];
  v2343 -> v2346 [style = solid, label = "0"];
  v2345 -> v2346 [style = solid, label = "1"];
  v2346 -> v2347 [style = solid, label = ""];
  v2347 -> v2348 [style = solid, label = ""];
  v2348 -> v2349 [style = solid, label = "0"];
  v2336 -> v2349 [style = solid, label = "2"];
  v2349 -> v2350 [style = solid, label = "0"];
  v2350 -> v2351 [style = solid, label = "0"];
  v2351 -> v2352 [style = solid, label = "0"];
  v2349 -> v2352 [style = solid, label = "2"];
  v2352 -> v2353 [style = solid, label = "0"];
  v2353 -> v2354 [style = solid, label = "0"];
  v2354 -> v2355 [style = solid, label = ""];
  v2353 -> v2356 [style = solid, label = "0"];
  v2356 -> v2357 [style = solid, label = ""];
  v2357 -> v2358 [style = solid, label = "0"];
  v2355 -> v2358 [style = solid, label = "1"];
  v2065 -> v2358 [style = solid, label = "2"];
  v2358 -> v2359 [style = solid, label = ""];
  v2353 -> v2360 [style = solid, label = "0"];
  v2360 -> v2361 [style = solid, label = ""];
  v2359 -> v2362 [style = solid, label = "0"];
  v2361 -> v2362 [style = solid, label = "1"];
  v2362 -> v2363 [style = solid, label = ""];
  v2363 -> v2364 [style = solid, label = ""];
  v2364 -> v2365 [style = solid, label = "0"];
  v2352 -> v2365 [style = solid, label = "2"];
  v2365 -> v2366 [style = solid, label = "0"];
  v2366 -> v2367 [style = solid, label = "0"];
  v2367 -> v2368 [style = solid, label = "0"];
  v2365 -> v2368 [style = solid, label = "2"];
  v2368 -> v2369 [style = solid, label = "0"];
  v2369 -> v2370 [style = solid, label = "0"];
  v2370 -> v2371 [style = solid, label = ""];
  v2369 -> v2372 [style = solid, label = "0"];
  v2372 -> v2373 [style = solid, label = ""];
  v2373 -> v2374 [style = solid, label = "0"];
  v2371 -> v2374 [style = solid, label = "1"];
  v2065 -> v2374 [style = solid, label = "2"];
  v2374 -> v2375 [style = solid, label = ""];
  v2369 -> v2376 [style = solid, label = "0"];
  v2376 -> v2377 [style = solid, label = ""];
  v2375 -> v2378 [style = solid, label = "0"];
  v2377 -> v2378 [style = solid, label = "1"];
  v2378 -> v2379 [style = solid, label = ""];
  v2379 -> v2380 [style = solid, label = ""];
  v2380 -> v2381 [style = solid, label = "0"];
  v2368 -> v2381 [style = solid, label = "2"];
  v2381 -> v2382 [style = solid, label = "0"];
  v2382 -> v2383 [style = solid, label = "0"];
  v2383 -> v2384 [style = solid, label = "0"];
  v2381 -> v2384 [style = solid, label = "2"];
  v2384 -> v2385 [style = solid, label = "0"];
  v2385 -> v2386 [style = solid, label = "0"];
  v2386 -> v2387 [style = solid, label = ""];
  v2385 -> v2388 [style = solid, label = "0"];
  v2388 -> v2389 [style = solid, label = ""];
  v2389 -> v2390 [style = solid, label = "0"];
  v2387 -> v2390 [style = solid, label = "1"];
  v2065 -> v2390 [style = solid, label = "2"];
  v2390 -> v2391 [style = solid, label = ""];
  v2385 -> v2392 [style = solid, label = "0"];
  v2392 -> v2393 [style = solid, label = ""];
  v2391 -> v2394 [style = solid, label = "0"];
  v2393 -> v2394 [style = solid, label = "1"];
  v2394 -> v2395 [style = solid, label = ""];
  v2395 -> v2396 [style = solid, label = ""];
  v2396 -> v2397 [style = solid, label = "0"];
  v2384 -> v2397 [style = solid, label = "2"];
  v2397 -> v2398 [style = solid, label = "0"];
  v2398 -> v2399 [style = solid, label = "0"];
  v2399 -> v2400 [style = solid, label = "0"];
  v2397 -> v2400 [style = solid, label = "2"];
  v2400 -> v2401 [style = solid, label = "0"];
  v2401 -> v2402 [style = solid, label = "0"];
  v2402 -> v2403 [style = solid, label = ""];
  v2401 -> v2404 [style = solid, label = "0"];
  v2404 -> v2405 [style = solid, label = ""];
  v2405 -> v2406 [style = solid, label = "0"];
  v2403 -> v2406 [style = solid, label = "1"];
  v2065 -> v2406 [style = solid, label = "2"];
  v2406 -> v2407 [style = solid, label = ""];
  v2401 -> v2408 [style = solid, label = "0"];
  v2408 -> v2409 [style = solid, label = ""];
  v2407 -> v2410 [style = solid, label = "0"];
  v2409 -> v2410 [style = solid, label = "1"];
  v2410 -> v2411 [style = solid, label = ""];
  v2411 -> v2412 [style = solid, label = ""];
  v2412 -> v2413 [style = solid, label = "0"];
  v2400 -> v2413 [style = solid, label = "2"];
  v2413 -> v2414 [style = solid, label = "0"];
  v2414 -> v2415 [style = solid, label = "0"];
  v2415 -> v2416 [style = solid, label = "0"];
  v2413 -> v2416 [style = solid, label = "2"];
  v2416 -> v2417 [style = solid, label = "0"];
  v2417 -> v2418 [style = solid, label = "0"];
  v2418 -> v2419 [style = solid, label = ""];
  v2417 -> v2420 [style = solid, label = "0"];
  v2420 -> v2421 [style = solid, label = ""];
  v2421 -> v2422 [style = solid, label = "0"];
  v2419 -> v2422 [style = solid, label = "1"];
  v2065 -> v2422 [style = solid, label = "2"];
  v2422 -> v2423 [style = solid, label = ""];
  v2417 -> v2424 [style = solid, label = "0"];
  v2424 -> v2425 [style = solid, label = ""];
  v2423 -> v2426 [style = solid, label = "0"];
  v2425 -> v2426 [style = solid, label = "1"];
  v2426 -> v2427 [style = solid, label = ""];
  v2427 -> v2428 [style = solid, label = ""];
  v2428 -> v2429 [style = solid, label = "0"];
  v2416 -> v2429 [style = solid, label = "2"];
  v2429 -> v2430 [style = solid, label = "0"];
  v2430 -> v2431 [style = solid, label = "0"];
  v2431 -> v2432 [style = solid, label = "0"];
  v2429 -> v2432 [style = solid, label = "2"];
  v2432 -> v2433 [style = solid, label = "0"];
  v2433 -> v2434 [style = solid, label = "0"];
  v2434 -> v2435 [style = solid, label = ""];
  v2433 -> v2436 [style = solid, label = "0"];
  v2436 -> v2437 [style = solid, label = ""];
  v2437 -> v2438 [style = solid, label = "0"];
  v2435 -> v2438 [style = solid, label = "1"];
  v2065 -> v2438 [style = solid, label = "2"];
  v2438 -> v2439 [style = solid, label = ""];
  v2433 -> v2440 [style = solid, label = "0"];
  v2440 -> v2441 [style = solid, label = ""];
  v2439 -> v2442 [style = solid, label = "0"];
  v2441 -> v2442 [style = solid, label = "1"];
  v2442 -> v2443 [style = solid, label = ""];
  v2443 -> v2444 [style = solid, label = ""];
  v2444 -> v2445 [style = solid, label = "0"];
  v2432 -> v2445 [style = solid, label = "2"];
  v2445 -> v2446 [style = solid, label = "0"];
  v2446 -> v2447 [style = solid, label = "0"];
  v2447 -> v2448 [style = solid, label = "0"];
  v2445 -> v2448 [style = solid, label = "2"];
  v2448 -> v2449 [style = solid, label = "0"];
  v2449 -> v2450 [style = solid, label = "0"];
  v2450 -> v2451 [style = solid, label = ""];
  v2063 -> v2452 [style = solid, label = "0"];
  v2451 -> v2452 [style = solid, label = "1"];
  v2452 -> v2453 [style = solid, label = ""];
  v2449 -> v2454 [style = solid, label = "0"];
  v2454 -> v2455 [style = solid, label = ""];
  v2453 -> v2456 [style = solid, label = "0"];
  v2455 -> v2456 [style = solid, label = "1"];
  v2456 -> v2457 [style = solid, label = ""];
  v2457 -> v2458 [style = solid, label = ""];
  v2458 -> v2459 [style = solid, label = "0"];
  v2060 -> v2459 [style = solid, label = "2"];
  v2459 -> v2460 [style = solid, label = "0"];
  v2460 -> v2461 [style = solid, label = "0"];
  v2461 -> v2462 [style = solid, label = "0"];
  v2459 -> v2462 [style = solid, label = "2"];
  v2462 -> v2463 [style = solid, label = "0"];
  v2463 -> v2464 [style = solid, label = "0"];
  v2464 -> v2465 [style = solid, label = ""];
  v2463 -> v2466 [style = solid, label = "0"];
  v2466 -> v2467 [style = solid, label = ""];
  v2467 -> v2468 [style = solid, label = "0"];
  v2465 -> v2468 [style = solid, label = "1"];
  v2048 -> v2468 [style = solid, label = "2"];
  v2468 -> v2469 [style = solid, label = ""];
  v2463 -> v2470 [style = solid, label = "0"];
  v2470 -> v2471 [style = solid, label = ""];
  v2469 -> v2472 [style = solid, label = "0"];
  v2471 -> v2472 [style = solid, label = "1"];
  v2472 -> v2473 [style = solid, label = ""];
  v2473 -> v2474 [style = solid, label = ""];
  v2474 -> v2475 [style = solid, label = "0"];
  v2462 -> v2475 [style = solid, label = "2"];
  v2475 -> v2476 [style = solid, label = "0"];
  v2476 -> v2477 [style = solid, label = "0"];
  v2477 -> v2478 [style = solid, label = ""];
  v2449 -> v2479 [style = solid, label = "0"];
  v2479 -> v2480 [style = solid, label = ""];
  v2478 -> v2481 [style = solid, label = "0"];
  v2480 -> v2481 [style = solid, label = "1"];
  v2481 -> v2482 [style = solid, label = ""];
  v2449 -> v2483 [style = solid, label = "0"];
  v2483 -> v2484 [style = solid, label = ""];
  v2482 -> v2485 [style = solid, label = "0"];
  v2484 -> v2485 [style = solid, label = "1"];
  v2485 -> v2486 [style = solid, label = ""];
  v2486 -> v2487 [style = solid, label = ""];
  v2487 -> v2488 [style = solid, label = "0"];
  v2475 -> v2488 [style = solid, label = "2"];
  v2488 -> v2489 [style = solid, label = "0"];
  v2489 -> v2490 [style = solid, label = "0"];
  v2490 -> v2491 [style = solid, label = "0"];
  v2488 -> v2491 [style = solid, label = "2"];
  v2491 -> v2492 [style = solid, label = "0"];
  v2492 -> v2493 [style = solid, label = "0"];
  v2493 -> v2494 [style = solid, label = ""];
  v2492 -> v2495 [style = solid, label = "0"];
  v2495 -> v2496 [style = solid, label = ""];
  v2496 -> v2497 [style = solid, label = "0"];
  v2494 -> v2497 [style = solid, label = "1"];
  v2048 -> v2497 [style = solid, label = "2"];
  v2497 -> v2498 [style = solid, label = ""];
  v2492 -> v2499 [style = solid, label = "0"];
  v2499 -> v2500 [style = solid, label = ""];
  v2498 -> v2501 [style = solid, label = "0"];
  v2500 -> v2501 [style = solid, label = "1"];
  v2501 -> v2502 [style = solid, label = ""];
  v2502 -> v2503 [style = solid, label = ""];
  v2503 -> v2504 [style = solid, label = "0"];
  v2491 -> v2504 [style = solid, label = "2"];
  v2504 -> v2505 [style = solid, label = "0"];
  v2505 -> v2506 [style = solid, label = "0"];
  v2506 -> v2507 [style = solid, label = ""];
  v2449 -> v2508 [style = solid, label = "0"];
  v2508 -> v2509 [style = solid, label = ""];
  v2449 -> v2510 [style = solid, label = "0"];
  v2510 -> v2511 [style = solid, label = ""];
  v2449 -> v2512 [style = solid, label = "0"];
  v2512 -> v2513 [style = solid, label = ""];
  v2449 -> v2514 [style = solid, label = "0"];
  v2514 -> v2515 [style = solid, label = ""];
  v2449 -> v2516 [style = solid, label = "0"];
  v2516 -> v2517 [style = solid, label = ""];
  v2449 -> v2518 [style = solid, label = "0"];
  v2518 -> v2519 [style = solid, label = ""];
  v2449 -> v2520 [style = solid, label = "0"];
  v2520 -> v2521 [style = solid, label = ""];
  v2449 -> v2522 [style = solid, label = "0"];
  v2522 -> v2523 [style = solid, label = ""];
  v2449 -> v2524 [style = solid, label = "0"];
  v2524 -> v2525 [style = solid, label = ""];
  v2449 -> v2526 [style = solid, label = "0"];
  v2526 -> v2527 [style = solid, label = ""];
  v2449 -> v2528 [style = solid, label = "0"];
  v2528 -> v2529 [style = solid, label = ""];
  v2449 -> v2530 [style = solid, label = "0"];
  v2530 -> v2531 [style = solid, label = ""];
  v2449 -> v2532 [style = solid, label = "0"];
  v2532 -> v2533 [style = solid, label = ""];
  v2449 -> v2534 [style = solid, label = "0"];
  v2534 -> v2535 [style = solid, label = ""];
  v2449 -> v2536 [style = solid, label = "0"];
  v2536 -> v2537 [style = solid, label = ""];
  v2449 -> v2538 [style = solid, label = "0"];
  v2538 -> v2539 [style = solid, label = ""];
  v2449 -> v2540 [style = solid, label = "0"];
  v2540 -> v2541 [style = solid, label = ""];
  v2449 -> v2542 [style = solid, label = "0"];
  v2542 -> v2543 [style = solid, label = ""];
  v2449 -> v2544 [style = solid, label = "0"];
  v2544 -> v2545 [style = solid, label = ""];
  v2449 -> v2546 [style = solid, label = "0"];
  v2546 -> v2547 [style = solid, label = ""];
  v2449 -> v2548 [style = solid, label = "0"];
  v2548 -> v2549 [style = solid, label = ""];
  v2507 -> v2550 [style = solid, label = "0"];
  v2549 -> v2550 [style = solid, label = "1"];
  v2550 -> v2551 [style = solid, label = ""];
  v2449 -> v2552 [style = solid, label = "0"];
  v2552 -> v2553 [style = solid, label = ""];
  v2551 -> v2554 [style = solid, label = "0"];
  v2553 -> v2554 [style = solid, label = "1"];
  v2554 -> v2555 [style = solid, label = ""];
  v2555 -> v2556 [style = solid, label = ""];
  v2556 -> v2557 [style = solid, label = "0"];
  v2504 -> v2557 [style = solid, label = "2"];
  v2557 -> v2558 [style = solid, label = "0"];
  v2558 -> v2559 [style = solid, label = "0"];
  v2559 -> v2560 [style = solid, label = "0"];
  v2557 -> v2560 [style = solid, label = "2"];
  v2560 -> v2561 [style = solid, label = "0"];
  v2561 -> v2562 [style = solid, label = "0"];
  v2562 -> v2563 [style = solid, label = ""];
  v2561 -> v2564 [style = solid, label = "0"];
  v2564 -> v2565 [style = solid, label = ""];
  v2565 -> v2566 [style = solid, label = "0"];
  v2563 -> v2566 [style = solid, label = "1"];
  v2048 -> v2566 [style = solid, label = "2"];
  v2566 -> v2567 [style = solid, label = ""];
  v2561 -> v2568 [style = solid, label = "0"];
  v2568 -> v2569 [style = solid, label = ""];
  v2567 -> v2570 [style = solid, label = "0"];
  v2569 -> v2570 [style = solid, label = "1"];
  v2570 -> v2571 [style = solid, label = ""];
  v2571 -> v2572 [style = solid, label = ""];
  v2572 -> v2573 [style = solid, label = "0"];
  v2560 -> v2573 [style = solid, label = "2"];
  v2573 -> v2574 [style = solid, label = "0"];
  v2574 -> v2575 [style = solid, label = "0"];
  v2575 -> v2576 [style = solid, label = ""];
  v2449 -> v2577 [style = solid, label = "0"];
  v2577 -> v2578 [style = solid, label = ""];
  v2449 -> v2579 [style = solid, label = "0"];
  v2579 -> v2580 [style = solid, label = ""];
  v2449 -> v2581 [style = solid, label = "0"];
  v2581 -> v2582 [style = solid, label = ""];
  v2449 -> v2583 [style = solid, label = "0"];
  v2583 -> v2584 [style = solid, label = ""];
  v2449 -> v2585 [style = solid, label = "0"];
  v2585 -> v2586 [style = solid, label = ""];
  v2449 -> v2587 [style = solid, label = "0"];
  v2587 -> v2588 [style = solid, label = ""];
  v2449 -> v2589 [style = solid, label = "0"];
  v2589 -> v2590 [style = solid, label = ""];
  v2449 -> v2591 [style = solid, label = "0"];
  v2591 -> v2592 [style = solid, label = ""];
  v2449 -> v2593 [style = solid, label = "0"];
  v2593 -> v2594 [style = solid, label = ""];
  v2576 -> v2595 [style = solid, label = "0"];
  v2594 -> v2595 [style = solid, label = "1"];
  v2595 -> v2596 [style = solid, label = ""];
  v2449 -> v2597 [style = solid, label = "0"];
  v2597 -> v2598 [style = solid, label = ""];
  v2596 -> v2599 [style = solid, label = "0"];
  v2598 -> v2599 [style = solid, label = "1"];
  v2599 -> v2600 [style = solid, label = ""];
  v2600 -> v2601 [style = solid, label = ""];
  v2601 -> v2602 [style = solid, label = "0"];
  v2573 -> v2602 [style = solid, label = "2"];
  v2602 -> v2603 [style = solid, label = "0"];
  v2603 -> v2604 [style = solid, label = "0"];
  v2604 -> v2605 [style = solid, label = "0"];
  v2602 -> v2605 [style = solid, label = "2"];
  v2605 -> v2606 [style = solid, label = "0"];
  v2606 -> v2607 [style = solid, label = "0"];
  v2607 -> v2608 [style = solid, label = ""];
  v2606 -> v2609 [style = solid, label = "0"];
  v2609 -> v2610 [style = solid, label = ""];
  v2610 -> v2611 [style = solid, label = "0"];
  v2608 -> v2611 [style = solid, label = "1"];
  v2048 -> v2611 [style = solid, label = "2"];
  v2611 -> v2612 [style = solid, label = ""];
  v2606 -> v2613 [style = solid, label = "0"];
  v2613 -> v2614 [style = solid, label = ""];
  v2612 -> v2615 [style = solid, label = "0"];
  v2614 -> v2615 [style = solid, label = "1"];
  v2615 -> v2616 [style = solid, label = ""];
  v2616 -> v2617 [style = solid, label = ""];
  v2617 -> v2618 [style = solid, label = "0"];
  v2605 -> v2618 [style = solid, label = "2"];
  v2618 -> v2619 [style = solid, label = "0"];
  v2619 -> v2620 [style = solid, label = "0"];
  v2620 -> v2621 [style = solid, label = ""];
  v2449 -> v2622 [style = solid, label = "0"];
  v2622 -> v2623 [style = solid, label = ""];
  v2621 -> v2624 [style = solid, label = "0"];
  v2623 -> v2624 [style = solid, label = "1"];
  v2624 -> v2625 [style = solid, label = ""];
  v2449 -> v2626 [style = solid, label = "0"];
  v2626 -> v2627 [style = solid, label = ""];
  v2625 -> v2628 [style = solid, label = "0"];
  v2627 -> v2628 [style = solid, label = "1"];
  v2628 -> v2629 [style = solid, label = ""];
  v2629 -> v2630 [style = solid, label = ""];
  v2630 -> v2631 [style = solid, label = "0"];
  v2618 -> v2631 [style = solid, label = "2"];
  v2631 -> v2632 [style = solid, label = "0"];
  v2632 -> v2633 [style = solid, label = "0"];
  v2633 -> v2634 [style = solid, label = "0"];
  v2631 -> v2634 [style = solid, label = "2"];
  v2634 -> v2635 [style = solid, label = "0"];
  v2635 -> v2636 [style = solid, label = "0"];
  v2636 -> v2637 [style = solid, label = ""];
  v2635 -> v2638 [style = solid, label = "0"];
  v2638 -> v2639 [style = solid, label = ""];
  v2639 -> v2640 [style = solid, label = "0"];
  v2637 -> v2640 [style = solid, label = "1"];
  v2048 -> v2640 [style = solid, label = "2"];
  v2640 -> v2641 [style = solid, label = ""];
  v2635 -> v2642 [style = solid, label = "0"];
  v2642 -> v2643 [style = solid, label = ""];
  v2641 -> v2644 [style = solid, label = "0"];
  v2643 -> v2644 [style = solid, label = "1"];
  v2644 -> v2645 [style = solid, label = ""];
  v2645 -> v2646 [style = solid, label = ""];
  v2646 -> v2647 [style = solid, label = "0"];
  v2634 -> v2647 [style = solid, label = "2"];
  v2647 -> v2648 [style = solid, label = "0"];
  v2648 -> v2649 [style = solid, label = "0"];
  v2649 -> v2650 [style = solid, label = ""];
  v2449 -> v2651 [style = solid, label = "0"];
  v2651 -> v2652 [style = solid, label = ""];
  v2650 -> v2653 [style = solid, label = "0"];
  v2652 -> v2653 [style = solid, label = "1"];
  v2653 -> v2654 [style = solid, label = ""];
  v2449 -> v2655 [style = solid, label = "0"];
  v2655 -> v2656 [style = solid, label = ""];
  v2654 -> v2657 [style = solid, label = "0"];
  v2656 -> v2657 [style = solid, label = "1"];
  v2657 -> v2658 [style = solid, label = ""];
  v2658 -> v2659 [style = solid, label = ""];
  v2659 -> v2660 [style = solid, label = "0"];
  v2647 -> v2660 [style = solid, label = "2"];
  v2660 -> v2661 [style = solid, label = "0"];
  v2661 -> v2662 [style = solid, label = "0"];
  v2662 -> v2663 [style = solid, label = "0"];
  v2660 -> v2663 [style = solid, label = "2"];
  v2663 -> v2664 [style = solid, label = "0"];
  v2664 -> v2665 [style = solid, label = "0"];
  v2665 -> v2666 [style = solid, label = ""];
  v2664 -> v2667 [style = solid, label = "0"];
  v2667 -> v2668 [style = solid, label = ""];
  v2668 -> v2669 [style = solid, label = "0"];
  v2666 -> v2669 [style = solid, label = "1"];
  v2048 -> v2669 [style = solid, label = "2"];
  v2669 -> v2670 [style = solid, label = ""];
  v2664 -> v2671 [style = solid, label = "0"];
  v2671 -> v2672 [style = solid, label = ""];
  v2670 -> v2673 [style = solid, label = "0"];
  v2672 -> v2673 [style = solid, label = "1"];
  v2673 -> v2674 [style = solid, label = ""];
  v2674 -> v2675 [style = solid, label = ""];
  v2675 -> v2676 [style = solid, label = "0"];
  v2663 -> v2676 [style = solid, label = "2"];
  v2676 -> v2677 [style = solid, label = "0"];
  v2677 -> v2678 [style = solid, label = "0"];
  v2678 -> v2679 [style = solid, label = ""];
  v2449 -> v2680 [style = solid, label = "0"];
  v2680 -> v2681 [style = solid, label = ""];
  v2679 -> v2682 [style = solid, label = "0"];
  v2681 -> v2682 [style = solid, label = "1"];
  v2682 -> v2683 [style = solid, label = ""];
  v2449 -> v2684 [style = solid, label = "0"];
  v2684 -> v2685 [style = solid, label = ""];
  v2683 -> v2686 [style = solid, label = "0"];
  v2685 -> v2686 [style = solid, label = "1"];
  v2686 -> v2687 [style = solid, label = ""];
  v2687 -> v2688 [style = solid, label = ""];
  v2688 -> v2689 [style = solid, label = "0"];
  v2676 -> v2689 [style = solid, label = "2"];
  v2689 -> v2690 [style = solid, label = "0"];
  v2690 -> v2691 [style = solid, label = "0"];
  v2691 -> v2692 [style = solid, label = "0"];
  v2689 -> v2692 [style = solid, label = "2"];
  v2692 -> v2693 [style = solid, label = "0"];
  v2693 -> v2694 [style = solid, label = "0"];
  v2694 -> v2695 [style = solid, label = ""];
  v2693 -> v2696 [style = solid, label = "0"];
  v2696 -> v2697 [style = solid, label = ""];
  v2697 -> v2698 [style = solid, label = "0"];
  v2695 -> v2698 [style = solid, label = "1"];
  v2048 -> v2698 [style = solid, label = "2"];
  v2698 -> v2699 [style = solid, label = ""];
  v2693 -> v2700 [style = solid, label = "0"];
  v2700 -> v2701 [style = solid, label = ""];
  v2699 -> v2702 [style = solid, label = "0"];
  v2701 -> v2702 [style = solid, label = "1"];
  v2702 -> v2703 [style = solid, label = ""];
  v2703 -> v2704 [style = solid, label = ""];
  v2704 -> v2705 [style = solid, label = "0"];
  v2692 -> v2705 [style = solid, label = "2"];
  v2705 -> v2706 [style = solid, label = "0"];
  v2706 -> v2707 [style = solid, label = "0"];
  v2707 -> v2708 [style = solid, label = ""];
  v2449 -> v2709 [style = solid, label = "0"];
  v2709 -> v2710 [style = solid, label = ""];
  v2708 -> v2711 [style = solid, label = "0"];
  v2710 -> v2711 [style = solid, label = "1"];
  v2711 -> v2712 [style = solid, label = ""];
  v2449 -> v2713 [style = solid, label = "0"];
  v2713 -> v2714 [style = solid, label = ""];
  v2712 -> v2715 [style = solid, label = "0"];
  v2714 -> v2715 [style = solid, label = "1"];
  v2715 -> v2716 [style = solid, label = ""];
  v2716 -> v2717 [style = solid, label = ""];
  v2717 -> v2718 [style = solid, label = "0"];
  v2705 -> v2718 [style = solid, label = "2"];
  v2718 -> v2719 [style = solid, label = "0"];
  v2719 -> v2720 [style = solid, label = "0"];
  v2720 -> v2721 [style = solid, label = "0"];
  v2718 -> v2721 [style = solid, label = "2"];
  v2721 -> v2722 [style = solid, label = "0"];
  v2722 -> v2723 [style = solid, label = "0"];
  v2723 -> v2724 [style = solid, label = ""];
  v2722 -> v2725 [style = solid, label = "0"];
  v2725 -> v2726 [style = solid, label = ""];
  v2726 -> v2727 [style = solid, label = "0"];
  v2724 -> v2727 [style = solid, label = "1"];
  v2048 -> v2727 [style = solid, label = "2"];
  v2727 -> v2728 [style = solid, label = ""];
  v2722 -> v2729 [style = solid, label = "0"];
  v2729 -> v2730 [style = solid, label = ""];
  v2728 -> v2731 [style = solid, label = "0"];
  v2730 -> v2731 [style = solid, label = "1"];
  v2731 -> v2732 [style = solid, label = ""];
  v2732 -> v2733 [style = solid, label = ""];
  v2733 -> v2734 [style = solid, label = "0"];
  v2721 -> v2734 [style = solid, label = "2"];
  v2734 -> v2735 [style = solid, label = "0"];
  v2735 -> v2736 [style = solid, label = "0"];
  v2736 -> v2737 [style = solid, label = ""];
  v2449 -> v2738 [style = solid, label = "0"];
  v2738 -> v2739 [style = solid, label = ""];
  v2737 -> v2740 [style = solid, label = "0"];
  v2739 -> v2740 [style = solid, label = "1"];
  v2740 -> v2741 [style = solid, label = ""];
  v2449 -> v2742 [style = solid, label = "0"];
  v2742 -> v2743 [style = solid, label = ""];
  v2741 -> v2744 [style = solid, label = "0"];
  v2743 -> v2744 [style = solid, label = "1"];
  v2744 -> v2745 [style = solid, label = ""];
  v2745 -> v2746 [style = solid, label = ""];
  v2746 -> v2747 [style = solid, label = "0"];
  v2734 -> v2747 [style = solid, label = "2"];
  v2747 -> v2748 [style = solid, label = "0"];
  v2748 -> v2749 [style = solid, label = "0"];
  v2749 -> v2750 [style = solid, label = "0"];
  v2747 -> v2750 [style = solid, label = "2"];
  v2750 -> v2751 [style = solid, label = "0"];
  v2751 -> v2752 [style = solid, label = "0"];
  v2752 -> v2753 [style = solid, label = ""];
  v2751 -> v2754 [style = solid, label = "0"];
  v2754 -> v2755 [style = solid, label = ""];
  v2755 -> v2756 [style = solid, label = "0"];
  v2753 -> v2756 [style = solid, label = "1"];
  v2048 -> v2756 [style = solid, label = "2"];
  v2756 -> v2757 [style = solid, label = ""];
  v2751 -> v2758 [style = solid, label = "0"];
  v2758 -> v2759 [style = solid, label = ""];
  v2757 -> v2760 [style = solid, label = "0"];
  v2759 -> v2760 [style = solid, label = "1"];
  v2760 -> v2761 [style = solid, label = ""];
  v2761 -> v2762 [style = solid, label = ""];
  v2762 -> v2763 [style = solid, label = "0"];
  v2750 -> v2763 [style = solid, label = "2"];
  v2763 -> v2764 [style = solid, label = "0"];
  v2764 -> v2765 [style = solid, label = "0"];
  v2765 -> v2766 [style = solid, label = ""];
  v2449 -> v2767 [style = solid, label = "0"];
  v2767 -> v2768 [style = solid, label = ""];
  v2766 -> v2769 [style = solid, label = "0"];
  v2768 -> v2769 [style = solid, label = "1"];
  v2769 -> v2770 [style = solid, label = ""];
  v2449 -> v2771 [style = solid, label = "0"];
  v2771 -> v2772 [style = solid, label = ""];
  v2770 -> v2773 [style = solid, label = "0"];
  v2772 -> v2773 [style = solid, label = "1"];
  v2773 -> v2774 [style = solid, label = ""];
  v2774 -> v2775 [style = solid, label = ""];
  v2775 -> v2776 [style = solid, label = "0"];
  v2763 -> v2776 [style = solid, label = "2"];
  v2776 -> v2777 [style = solid, label = "0"];
  v2777 -> v2778 [style = solid, label = "0"];
  v2778 -> v2779 [style = solid, label = "0"];
  v2776 -> v2779 [style = solid, label = "2"];
  v2779 -> v2780 [style = solid, label = "0"];
  v2780 -> v2781 [style = solid, label = "0"];
  v2781 -> v2782 [style = solid, label = ""];
  v2780 -> v2783 [style = solid, label = "0"];
  v2783 -> v2784 [style = solid, label = ""];
  v2784 -> v2785 [style = solid, label = "0"];
  v2782 -> v2785 [style = solid, label = "1"];
  v2048 -> v2785 [style = solid, label = "2"];
  v2785 -> v2786 [style = solid, label = ""];
  v2780 -> v2787 [style = solid, label = "0"];
  v2787 -> v2788 [style = solid, label = ""];
  v2786 -> v2789 [style = solid, label = "0"];
  v2788 -> v2789 [style = solid, label = "1"];
  v2789 -> v2790 [style = solid, label = ""];
  v2790 -> v2791 [style = solid, label = ""];
  v2791 -> v2792 [style = solid, label = "0"];
  v2779 -> v2792 [style = solid, label = "2"];
  v2792 -> v2793 [style = solid, label = "0"];
  v2793 -> v2794 [style = solid, label = "0"];
  v2794 -> v2795 [style = solid, label = ""];
  v2795 -> v2796 [style = solid, label = "0"];
  v2509 -> v2796 [style = solid, label = "1"];
  v2796 -> v2797 [style = solid, label = ""];
  v2797 -> v2798 [style = solid, label = "0"];
  v2511 -> v2798 [style = solid, label = "1"];
  v2798 -> v2799 [style = solid, label = ""];
  v2799 -> v2800 [style = solid, label = ""];
  v2800 -> v2801 [style = solid, label = "0"];
  v2792 -> v2801 [style = solid, label = "2"];
  v2801 -> v2802 [style = solid, label = "0"];
  v2802 -> v2803 [style = solid, label = "0"];
  v2803 -> v2804 [style = solid, label = "0"];
  v2801 -> v2804 [style = solid, label = "2"];
  v2804 -> v2805 [style = solid, label = "0"];
  v2805 -> v2806 [style = solid, label = "0"];
  v2806 -> v2807 [style = solid, label = ""];
  v2805 -> v2808 [style = solid, label = "0"];
  v2808 -> v2809 [style = solid, label = ""];
  v2809 -> v2810 [style = solid, label = "0"];
  v2807 -> v2810 [style = solid, label = "1"];
  v2048 -> v2810 [style = solid, label = "2"];
  v2810 -> v2811 [style = solid, label = ""];
  v2805 -> v2812 [style = solid, label = "0"];
  v2812 -> v2813 [style = solid, label = ""];
  v2811 -> v2814 [style = solid, label = "0"];
  v2813 -> v2814 [style = solid, label = "1"];
  v2814 -> v2815 [style = solid, label = ""];
  v2815 -> v2816 [style = solid, label = ""];
  v2816 -> v2817 [style = solid, label = "0"];
  v2804 -> v2817 [style = solid, label = "2"];
  v2817 -> v2818 [style = solid, label = "0"];
  v2818 -> v2819 [style = solid, label = "0"];
  v2819 -> v2820 [style = solid, label = ""];
  v2820 -> v2821 [style = solid, label = "0"];
  v2513 -> v2821 [style = solid, label = "1"];
  v2821 -> v2822 [style = solid, label = ""];
  v2822 -> v2823 [style = solid, label = "0"];
  v2515 -> v2823 [style = solid, label = "1"];
  v2823 -> v2824 [style = solid, label = ""];
  v2824 -> v2825 [style = solid, label = ""];
  v2825 -> v2826 [style = solid, label = "0"];
  v2817 -> v2826 [style = solid, label = "2"];
  v2826 -> v2827 [style = solid, label = "0"];
  v2827 -> v2828 [style = solid, label = "0"];
  v2828 -> v2829 [style = solid, label = "0"];
  v2826 -> v2829 [style = solid, label = "2"];
  v2829 -> v2830 [style = solid, label = "0"];
  v2830 -> v2831 [style = solid, label = "0"];
  v2831 -> v2832 [style = solid, label = ""];
  v2830 -> v2833 [style = solid, label = "0"];
  v2833 -> v2834 [style = solid, label = ""];
  v2834 -> v2835 [style = solid, label = "0"];
  v2832 -> v2835 [style = solid, label = "1"];
  v2048 -> v2835 [style = solid, label = "2"];
  v2835 -> v2836 [style = solid, label = ""];
  v2830 -> v2837 [style = solid, label = "0"];
  v2837 -> v2838 [style = solid, label = ""];
  v2836 -> v2839 [style = solid, label = "0"];
  v2838 -> v2839 [style = solid, label = "1"];
  v2839 -> v2840 [style = solid, label = ""];
  v2840 -> v2841 [style = solid, label = ""];
  v2841 -> v2842 [style = solid, label = "0"];
  v2829 -> v2842 [style = solid, label = "2"];
  v2842 -> v2843 [style = solid, label = "0"];
  v2843 -> v2844 [style = solid, label = "0"];
  v2844 -> v2845 [style = solid, label = ""];
  v2845 -> v2846 [style = solid, label = "0"];
  v2517 -> v2846 [style = solid, label = "1"];
  v2846 -> v2847 [style = solid, label = ""];
  v2847 -> v2848 [style = solid, label = "0"];
  v2519 -> v2848 [style = solid, label = "1"];
  v2848 -> v2849 [style = solid, label = ""];
  v2849 -> v2850 [style = solid, label = ""];
  v2850 -> v2851 [style = solid, label = "0"];
  v2842 -> v2851 [style = solid, label = "2"];
  v2851 -> v2852 [style = solid, label = "0"];
  v2852 -> v2853 [style = solid, label = "0"];
  v2853 -> v2854 [style = solid, label = "0"];
  v2851 -> v2854 [style = solid, label = "2"];
  v2854 -> v2855 [style = solid, label = "0"];
  v2855 -> v2856 [style = solid, label = "0"];
  v2856 -> v2857 [style = solid, label = ""];
  v2855 -> v2858 [style = solid, label = "0"];
  v2858 -> v2859 [style = solid, label = ""];
  v2859 -> v2860 [style = solid, label = "0"];
  v2857 -> v2860 [style = solid, label = "1"];
  v2048 -> v2860 [style = solid, label = "2"];
  v2860 -> v2861 [style = solid, label = ""];
  v2855 -> v2862 [style = solid, label = "0"];
  v2862 -> v2863 [style = solid, label = ""];
  v2861 -> v2864 [style = solid, label = "0"];
  v2863 -> v2864 [style = solid, label = "1"];
  v2864 -> v2865 [style = solid, label = ""];
  v2865 -> v2866 [style = solid, label = ""];
  v2866 -> v2867 [style = solid, label = "0"];
  v2854 -> v2867 [style = solid, label = "2"];
  v2867 -> v2868 [style = solid, label = "0"];
  v2868 -> v2869 [style = solid, label = "0"];
  v2869 -> v2870 [style = solid, label = ""];
  v2870 -> v2871 [style = solid, label = "0"];
  v2521 -> v2871 [style = solid, label = "1"];
  v2871 -> v2872 [style = solid, label = ""];
  v2872 -> v2873 [style = solid, label = "0"];
  v2523 -> v2873 [style = solid, label = "1"];
  v2873 -> v2874 [style = solid, label = ""];
  v2874 -> v2875 [style = solid, label = ""];
  v2875 -> v2876 [style = solid, label = "0"];
  v2867 -> v2876 [style = solid, label = "2"];
  v2876 -> v2877 [style = solid, label = "0"];
  v2877 -> v2878 [style = solid, label = "0"];
  v2878 -> v2879 [style = solid, label = "0"];
  v2876 -> v2879 [style = solid, label = "2"];
  v2879 -> v2880 [style = solid, label = "0"];
  v2880 -> v2881 [style = solid, label = "0"];
  v2881 -> v2882 [style = solid, label = ""];
  v2880 -> v2883 [style = solid, label = "0"];
  v2883 -> v2884 [style = solid, label = ""];
  v2884 -> v2885 [style = solid, label = "0"];
  v2882 -> v2885 [style = solid, label = "1"];
  v2048 -> v2885 [style = solid, label = "2"];
  v2885 -> v2886 [style = solid, label = ""];
  v2880 -> v2887 [style = solid, label = "0"];
  v2887 -> v2888 [style = solid, label = ""];
  v2886 -> v2889 [style = solid, label = "0"];
  v2888 -> v2889 [style = solid, label = "1"];
  v2889 -> v2890 [style = solid, label = ""];
  v2890 -> v2891 [style = solid, label = ""];
  v2891 -> v2892 [style = solid, label = "0"];
  v2879 -> v2892 [style = solid, label = "2"];
  v2892 -> v2893 [style = solid, label = "0"];
  v2893 -> v2894 [style = solid, label = "0"];
  v2894 -> v2895 [style = solid, label = ""];
  v2895 -> v2896 [style = solid, label = "0"];
  v2525 -> v2896 [style = solid, label = "1"];
  v2896 -> v2897 [style = solid, label = ""];
  v2897 -> v2898 [style = solid, label = "0"];
  v2527 -> v2898 [style = solid, label = "1"];
  v2898 -> v2899 [style = solid, label = ""];
  v2899 -> v2900 [style = solid, label = ""];
  v2900 -> v2901 [style = solid, label = "0"];
  v2892 -> v2901 [style = solid, label = "2"];
  v2901 -> v2902 [style = solid, label = "0"];
  v2902 -> v2903 [style = solid, label = "0"];
  v2903 -> v2904 [style = solid, label = "0"];
  v2901 -> v2904 [style = solid, label = "2"];
  v2904 -> v2905 [style = solid, label = "0"];
  v2905 -> v2906 [style = solid, label = "0"];
  v2906 -> v2907 [style = solid, label = ""];
  v2905 -> v2908 [style = solid, label = "0"];
  v2908 -> v2909 [style = solid, label = ""];
  v2909 -> v2910 [style = solid, label = "0"];
  v2907 -> v2910 [style = solid, label = "1"];
  v2048 -> v2910 [style = solid, label = "2"];
  v2910 -> v2911 [style = solid, label = ""];
  v2905 -> v2912 [style = solid, label = "0"];
  v2912 -> v2913 [style = solid, label = ""];
  v2911 -> v2914 [style = solid, label = "0"];
  v2913 -> v2914 [style = solid, label = "1"];
  v2914 -> v2915 [style = solid, label = ""];
  v2915 -> v2916 [style = solid, label = ""];
  v2916 -> v2917 [style = solid, label = "0"];
  v2904 -> v2917 [style = solid, label = "2"];
  v2917 -> v2918 [style = solid, label = "0"];
  v2918 -> v2919 [style = solid, label = "0"];
  v2919 -> v2920 [style = solid, label = ""];
  v2920 -> v2921 [style = solid, label = "0"];
  v2529 -> v2921 [style = solid, label = "1"];
  v2921 -> v2922 [style = solid, label = ""];
  v2922 -> v2923 [style = solid, label = "0"];
  v2531 -> v2923 [style = solid, label = "1"];
  v2923 -> v2924 [style = solid, label = ""];
  v2924 -> v2925 [style = solid, label = ""];
  v2925 -> v2926 [style = solid, label = "0"];
  v2917 -> v2926 [style = solid, label = "2"];
  v2926 -> v2927 [style = solid, label = "0"];
  v2927 -> v2928 [style = solid, label = "0"];
  v2928 -> v2929 [style = solid, label = "0"];
  v2926 -> v2929 [style = solid, label = "2"];
  v2929 -> v2930 [style = solid, label = "0"];
  v2930 -> v2931 [style = solid, label = "0"];
  v2931 -> v2932 [style = solid, label = ""];
  v2930 -> v2933 [style = solid, label = "0"];
  v2933 -> v2934 [style = solid, label = ""];
  v2934 -> v2935 [style = solid, label = "0"];
  v2932 -> v2935 [style = solid, label = "1"];
  v2048 -> v2935 [style = solid, label = "2"];
  v2935 -> v2936 [style = solid, label = ""];
  v2930 -> v2937 [style = solid, label = "0"];
  v2937 -> v2938 [style = solid, label = ""];
  v2936 -> v2939 [style = solid, label = "0"];
  v2938 -> v2939 [style = solid, label = "1"];
  v2939 -> v2940 [style = solid, label = ""];
  v2940 -> v2941 [style = solid, label = ""];
  v2941 -> v2942 [style = solid, label = "0"];
  v2929 -> v2942 [style = solid, label = "2"];
  v2942 -> v2943 [style = solid, label = "0"];
  v2943 -> v2944 [style = solid, label = "0"];
  v2944 -> v2945 [style = solid, label = ""];
  v2945 -> v2946 [style = solid, label = "0"];
  v2533 -> v2946 [style = solid, label = "1"];
  v2946 -> v2947 [style = solid, label = ""];
  v2947 -> v2948 [style = solid, label = "0"];
  v2535 -> v2948 [style = solid, label = "1"];
  v2948 -> v2949 [style = solid, label = ""];
  v2949 -> v2950 [style = solid, label = ""];
  v2950 -> v2951 [style = solid, label = "0"];
  v2942 -> v2951 [style = solid, label = "2"];
  v2951 -> v2952 [style = solid, label = "0"];
  v2952 -> v2953 [style = solid, label = "0"];
  v2953 -> v2954 [style = solid, label = "0"];
  v2951 -> v2954 [style = solid, label = "2"];
  v2954 -> v2955 [style = solid, label = "0"];
  v2955 -> v2956 [style = solid, label = "0"];
  v2956 -> v2957 [style = solid, label = ""];
  v2955 -> v2958 [style = solid, label = "0"];
  v2958 -> v2959 [style = solid, label = ""];
  v2959 -> v2960 [style = solid, label = "0"];
  v2957 -> v2960 [style = solid, label = "1"];
  v2048 -> v2960 [style = solid, label = "2"];
  v2960 -> v2961 [style = solid, label = ""];
  v2955 -> v2962 [style = solid, label = "0"];
  v2962 -> v2963 [style = solid, label = ""];
  v2961 -> v2964 [style = solid, label = "0"];
  v2963 -> v2964 [style = solid, label = "1"];
  v2964 -> v2965 [style = solid, label = ""];
  v2965 -> v2966 [style = solid, label = ""];
  v2966 -> v2967 [style = solid, label = "0"];
  v2954 -> v2967 [style = solid, label = "2"];
  v2967 -> v2968 [style = solid, label = "0"];
  v2968 -> v2969 [style = solid, label = "0"];
  v2969 -> v2970 [style = solid, label = ""];
  v2970 -> v2971 [style = solid, label = "0"];
  v2537 -> v2971 [style = solid, label = "1"];
  v2971 -> v2972 [style = solid, label = ""];
  v2972 -> v2973 [style = solid, label = "0"];
  v2539 -> v2973 [style = solid, label = "1"];
  v2973 -> v2974 [style = solid, label = ""];
  v2974 -> v2975 [style = solid, label = ""];
  v2975 -> v2976 [style = solid, label = "0"];
  v2967 -> v2976 [style = solid, label = "2"];
  v2976 -> v2977 [style = solid, label = "0"];
  v2977 -> v2978 [style = solid, label = "0"];
  v2978 -> v2979 [style = solid, label = "0"];
  v2976 -> v2979 [style = solid, label = "2"];
  v2979 -> v2980 [style = solid, label = "0"];
  v2980 -> v2981 [style = solid, label = "0"];
  v2981 -> v2982 [style = solid, label = ""];
  v2980 -> v2983 [style = solid, label = "0"];
  v2983 -> v2984 [style = solid, label = ""];
  v2984 -> v2985 [style = solid, label = "0"];
  v2982 -> v2985 [style = solid, label = "1"];
  v2048 -> v2985 [style = solid, label = "2"];
  v2985 -> v2986 [style = solid, label = ""];
  v2980 -> v2987 [style = solid, label = "0"];
  v2987 -> v2988 [style = solid, label = ""];
  v2986 -> v2989 [style = solid, label = "0"];
  v2988 -> v2989 [style = solid, label = "1"];
  v2989 -> v2990 [style = solid, label = ""];
  v2990 -> v2991 [style = solid, label = ""];
  v2991 -> v2992 [style = solid, label = "0"];
  v2979 -> v2992 [style = solid, label = "2"];
  v2992 -> v2993 [style = solid, label = "0"];
  v2993 -> v2994 [style = solid, label = "0"];
  v2994 -> v2995 [style = solid, label = ""];
  v2995 -> v2996 [style = solid, label = "0"];
  v2541 -> v2996 [style = solid, label = "1"];
  v2996 -> v2997 [style = solid, label = ""];
  v2997 -> v2998 [style = solid, label = "0"];
  v2543 -> v2998 [style = solid, label = "1"];
  v2998 -> v2999 [style = solid, label = ""];
  v2999 -> v3000 [style = solid, label = ""];
  v3000 -> v3001 [style = solid, label = "0"];
  v2992 -> v3001 [style = solid, label = "2"];
  v3001 -> v3002 [style = solid, label = "0"];
  v3002 -> v3003 [style = solid, label = "0"];
  v3003 -> v3004 [style = solid, label = "0"];
  v3001 -> v3004 [style = solid, label = "2"];
  v3004 -> v3005 [style = solid, label = "0"];
  v3005 -> v3006 [style = solid, label = "0"];
  v3006 -> v3007 [style = solid, label = ""];
  v3005 -> v3008 [style = solid, label = "0"];
  v3008 -> v3009 [style = solid, label = ""];
  v3009 -> v3010 [style = solid, label = "0"];
  v3007 -> v3010 [style = solid, label = "1"];
  v2048 -> v3010 [style = solid, label = "2"];
  v3010 -> v3011 [style = solid, label = ""];
  v3005 -> v3012 [style = solid, label = "0"];
  v3012 -> v3013 [style = solid, label = ""];
  v3011 -> v3014 [style = solid, label = "0"];
  v3013 -> v3014 [style = solid, label = "1"];
  v3014 -> v3015 [style = solid, label = ""];
  v3015 -> v3016 [style = solid, label = ""];
  v3016 -> v3017 [style = solid, label = "0"];
  v3004 -> v3017 [style = solid, label = "2"];
  v3017 -> v3018 [style = solid, label = "0"];
  v3018 -> v3019 [style = solid, label = "0"];
  v3019 -> v3020 [style = solid, label = ""];
  v3020 -> v3021 [style = solid, label = "0"];
  v2545 -> v3021 [style = solid, label = "1"];
  v3021 -> v3022 [style = solid, label = ""];
  v3022 -> v3023 [style = solid, label = "0"];
  v2547 -> v3023 [style = solid, label = "1"];
  v3023 -> v3024 [style = solid, label = ""];
  v3024 -> v3025 [style = solid, label = ""];
  v3025 -> v3026 [style = solid, label = "0"];
  v3017 -> v3026 [style = solid, label = "2"];
  v3026 -> v3027 [style = solid, label = "0"];
  v3027 -> v3028 [style = solid, label = "0"];
  v3028 -> v3029 [style = solid, label = "0"];
  v3026 -> v3029 [style = solid, label = "2"];
  v3029 -> v3030 [style = solid, label = "0"];
  v3030 -> v3031 [style = solid, label = "0"];
  v3031 -> v3032 [style = solid, label = ""];
  v3030 -> v3033 [style = solid, label = "0"];
  v3033 -> v3034 [style = solid, label = ""];
  v3034 -> v3035 [style = solid, label = "0"];
  v3032 -> v3035 [style = solid, label = "1"];
  v2048 -> v3035 [style = solid, label = "2"];
  v3035 -> v3036 [style = solid, label = ""];
  v3030 -> v3037 [style = solid, label = "0"];
  v3037 -> v3038 [style = solid, label = ""];
  v3036 -> v3039 [style = solid, label = "0"];
  v3038 -> v3039 [style = solid, label = "1"];
  v3039 -> v3040 [style = solid, label = ""];
  v3040 -> v3041 [style = solid, label = ""];
  v3041 -> v3042 [style = solid, label = "0"];
  v3029 -> v3042 [style = solid, label = "2"];
  v3042 -> v3043 [style = solid, label = "0"];
  v3043 -> v3044 [style = solid, label = "0"];
  v3044 -> v3045 [style = solid, label = ""];
  v3045 -> v3046 [style = solid, label = "0"];
  v2578 -> v3046 [style = solid, label = "1"];
  v3046 -> v3047 [style = solid, label = ""];
  v3047 -> v3048 [style = solid, label = "0"];
  v2580 -> v3048 [style = solid, label = "1"];
  v3048 -> v3049 [style = solid, label = ""];
  v3049 -> v3050 [style = solid, label = ""];
  v3050 -> v3051 [style = solid, label = "0"];
  v3042 -> v3051 [style = solid, label = "2"];
  v3051 -> v3052 [style = solid, label = "0"];
  v3052 -> v3053 [style = solid, label = "0"];
  v3053 -> v3054 [style = solid, label = "0"];
  v3051 -> v3054 [style = solid, label = "2"];
  v3054 -> v3055 [style = solid, label = "0"];
  v3055 -> v3056 [style = solid, label = "0"];
  v3056 -> v3057 [style = solid, label = ""];
  v3055 -> v3058 [style = solid, label = "0"];
  v3058 -> v3059 [style = solid, label = ""];
  v3059 -> v3060 [style = solid, label = "0"];
  v3057 -> v3060 [style = solid, label = "1"];
  v2048 -> v3060 [style = solid, label = "2"];
  v3060 -> v3061 [style = solid, label = ""];
  v3055 -> v3062 [style = solid, label = "0"];
  v3062 -> v3063 [style = solid, label = ""];
  v3061 -> v3064 [style = solid, label = "0"];
  v3063 -> v3064 [style = solid, label = "1"];
  v3064 -> v3065 [style = solid, label = ""];
  v3065 -> v3066 [style = solid, label = ""];
  v3066 -> v3067 [style = solid, label = "0"];
  v3054 -> v3067 [style = solid, label = "2"];
  v3067 -> v3068 [style = solid, label = "0"];
  v3068 -> v3069 [style = solid, label = "0"];
  v3069 -> v3070 [style = solid, label = ""];
  v3070 -> v3071 [style = solid, label = "0"];
  v2582 -> v3071 [style = solid, label = "1"];
  v3071 -> v3072 [style = solid, label = ""];
  v3072 -> v3073 [style = solid, label = "0"];
  v2584 -> v3073 [style = solid, label = "1"];
  v3073 -> v3074 [style = solid, label = ""];
  v3074 -> v3075 [style = solid, label = ""];
  v3075 -> v3076 [style = solid, label = "0"];
  v3067 -> v3076 [style = solid, label = "2"];
  v3076 -> v3077 [style = solid, label = "0"];
  v3077 -> v3078 [style = solid, label = "0"];
  v3078 -> v3079 [style = solid, label = "0"];
  v3076 -> v3079 [style = solid, label = "2"];
  v3079 -> v3080 [style = solid, label = "0"];
  v3080 -> v3081 [style = solid, label = "0"];
  v3081 -> v3082 [style = solid, label = ""];
  v3080 -> v3083 [style = solid, label = "0"];
  v3083 -> v3084 [style = solid, label = ""];
  v3084 -> v3085 [style = solid, label = "0"];
  v3082 -> v3085 [style = solid, label = "1"];
  v2048 -> v3085 [style = solid, label = "2"];
  v3085 -> v3086 [style = solid, label = ""];
  v3080 -> v3087 [style = solid, label = "0"];
  v3087 -> v3088 [style = solid, label = ""];
  v3086 -> v3089 [style = solid, label = "0"];
  v3088 -> v3089 [style = solid, label = "1"];
  v3089 -> v3090 [style = solid, label = ""];
  v3090 -> v3091 [style = solid, label = ""];
  v3091 -> v3092 [style = solid, label = "0"];
  v3079 -> v3092 [style = solid, label = "2"];
  v3092 -> v3093 [style = solid, label = "0"];
  v3093 -> v3094 [style = solid, label = "0"];
  v3094 -> v3095 [style = solid, label = ""];
  v3095 -> v3096 [style = solid, label = "0"];
  v2586 -> v3096 [style = solid, label = "1"];
  v3096 -> v3097 [style = solid, label = ""];
  v3097 -> v3098 [style = solid, label = "0"];
  v2588 -> v3098 [style = solid, label = "1"];
  v3098 -> v3099 [style = solid, label = ""];
  v3099 -> v3100 [style = solid, label = ""];
  v3100 -> v3101 [style = solid, label = "0"];
  v3092 -> v3101 [style = solid, label = "2"];
  v3101 -> v3102 [style = solid, label = "0"];
  v3102 -> v3103 [style = solid, label = "0"];
  v3103 -> v3104 [style = solid, label = "0"];
  v3101 -> v3104 [style = solid, label = "2"];
  v3104 -> v3105 [style = solid, label = "0"];
  v3105 -> v3106 [style = solid, label = "0"];
  v3106 -> v3107 [style = solid, label = ""];
  v3105 -> v3108 [style = solid, label = "0"];
  v3108 -> v3109 [style = solid, label = ""];
  v3109 -> v3110 [style = solid, label = "0"];
  v3107 -> v3110 [style = solid, label = "1"];
  v2048 -> v3110 [style = solid, label = "2"];
  v3110 -> v3111 [style = solid, label = ""];
  v3105 -> v3112 [style = solid, label = "0"];
  v3112 -> v3113 [style = solid, label = ""];
  v3111 -> v3114 [style = solid, label = "0"];
  v3113 -> v3114 [style = solid, label = "1"];
  v3114 -> v3115 [style = solid, label = ""];
  v3115 -> v3116 [style = solid, label = ""];
  v3116 -> v3117 [style = solid, label = "0"];
  v3104 -> v3117 [style = solid, label = "2"];
  v3117 -> v3118 [style = solid, label = "0"];
  v3118 -> v3119 [style = solid, label = "0"];
  v3119 -> v3120 [style = solid, label = ""];
  v3120 -> v3121 [style = solid, label = "0"];
  v2590 -> v3121 [style = solid, label = "1"];
  v3121 -> v3122 [style = solid, label = ""];
  v3122 -> v3123 [style = solid, label = "0"];
  v2592 -> v3123 [style = solid, label = "1"];
  v3123 -> v3124 [style = solid, label = ""];
  v3124 -> v3125 [style = solid, label = ""];
  v3125 -> v3126 [style = solid, label = "0"];
  v3117 -> v3126 [style = solid, label = "2"];
  v3126 -> v3127 [style = solid, label = "0"];
  v3127 -> v3128 [style = solid, label = "0"];
  v3128 -> v3129 [style = solid, label = "0"];
  v3126 -> v3129 [style = solid, label = "2"];
  v3129 -> v3130 [style = solid, label = "0"];
  v3130 -> v3131 [style = solid, label = ""];
  v3131 -> v3132 [style = solid, label = ""];
  v3132 -> v3133 [style = solid, label = ""];
}
